name: "googlenet_bn_cub_two_st"
layer {
  name: "data"
  type: "Data"
  top: "data"
  top: "label"
  include {
    phase: TRAIN
  }
  transform_param {
    mirror: true
    crop_size: 224
    mean_value: 104.0
    mean_value: 117.0
    mean_value: 123.0
  }
  data_param {
    source: "data/cub_nocrop_train"
    batch_size: 16
    backend: LMDB
  }
}
layer {
  name: "data"
  type: "Data"
  top: "data"
  top: "label"
  include {
    phase: TEST
  }
  transform_param {
    mirror: false
    crop_size: 224
    mean_value: 104.0
    mean_value: 117.0
    mean_value: 123.0
  }
  data_param {
    source: "data/cub_nocrop_test"
    batch_size: 16
    backend: LMDB
  }
}
layer {
  name: "st/conv1/7x7_s2"
  type: "Convolution"
  bottom: "data"
  top: "st/conv1/7x7_s2"
  param {
    lr_mult: 0.0001
    decay_mult: 1.0
  }
  convolution_param {
    num_output: 64
    bias_term: false
    pad: 3
    kernel_size: 7
    stride: 2
    weight_filler {
      type: "xavier"
    }
  }
}
layer {
  name: "st/conv1/7x7_s2/bn"
  type: "BN"
  bottom: "st/conv1/7x7_s2"
  top: "st/conv1/7x7_s2/bn"
  param {
    lr_mult: 0.0001
    decay_mult: 0.0
  }
  param {
    lr_mult: 0.0001
    decay_mult: 0.0
  }
  bn_param {
    scale_filler {
      type: "constant"
      value: 1.0
    }
    shift_filler {
      type: "constant"
      value: 0.0
    }
  }
}
layer {
  name: "st/conv1/relu_7x7"
  type: "ReLU"
  bottom: "st/conv1/7x7_s2/bn"
  top: "st/conv1/7x7_s2/bn"
}
layer {
  name: "st/pool1/3x3_s2"
  type: "Pooling"
  bottom: "st/conv1/7x7_s2/bn"
  top: "st/pool1/3x3_s2"
  pooling_param {
    pool: MAX
    kernel_size: 3
    stride: 2
  }
}
layer {
  name: "st/conv2/3x3_reduce"
  type: "Convolution"
  bottom: "st/pool1/3x3_s2"
  top: "st/conv2/3x3_reduce"
  param {
    lr_mult: 0.0001
    decay_mult: 1.0
  }
  convolution_param {
    num_output: 64
    bias_term: false
    kernel_size: 1
    weight_filler {
      type: "xavier"
    }
  }
}
layer {
  name: "st/conv2/3x3_reduce/bn"
  type: "BN"
  bottom: "st/conv2/3x3_reduce"
  top: "st/conv2/3x3_reduce/bn"
  param {
    lr_mult: 0.0001
    decay_mult: 0.0
  }
  param {
    lr_mult: 0.0001
    decay_mult: 0.0
  }
  bn_param {
    scale_filler {
      type: "constant"
      value: 1.0
    }
    shift_filler {
      type: "constant"
      value: 0.0
    }
  }
}
layer {
  name: "st/conv2/relu_3x3_reduce"
  type: "ReLU"
  bottom: "st/conv2/3x3_reduce/bn"
  top: "st/conv2/3x3_reduce/bn"
}
layer {
  name: "st/conv2/3x3"
  type: "Convolution"
  bottom: "st/conv2/3x3_reduce/bn"
  top: "st/conv2/3x3"
  param {
    lr_mult: 0.0001
    decay_mult: 1.0
  }
  convolution_param {
    num_output: 192
    bias_term: false
    pad: 1
    kernel_size: 3
    weight_filler {
      type: "xavier"
    }
  }
}
layer {
  name: "st/conv2/3x3/bn"
  type: "BN"
  bottom: "st/conv2/3x3"
  top: "st/conv2/3x3/bn"
  param {
    lr_mult: 0.0001
    decay_mult: 0.0
  }
  param {
    lr_mult: 0.0001
    decay_mult: 0.0
  }
  bn_param {
    scale_filler {
      type: "constant"
      value: 1.0
    }
    shift_filler {
      type: "constant"
      value: 0.0
    }
  }
}
layer {
  name: "st/conv2/relu_3x3"
  type: "ReLU"
  bottom: "st/conv2/3x3/bn"
  top: "st/conv2/3x3/bn"
}
layer {
  name: "st/pool2/3x3_s2"
  type: "Pooling"
  bottom: "st/conv2/3x3/bn"
  top: "st/pool2/3x3_s2"
  pooling_param {
    pool: MAX
    kernel_size: 3
    stride: 2
  }
}
layer {
  name: "st/inception_3a/1x1"
  type: "Convolution"
  bottom: "st/pool2/3x3_s2"
  top: "st/inception_3a/1x1"
  param {
    lr_mult: 0.0001
    decay_mult: 1.0
  }
  convolution_param {
    num_output: 64
    bias_term: false
    kernel_size: 1
    weight_filler {
      type: "xavier"
    }
  }
}
layer {
  name: "st/inception_3a/1x1/bn"
  type: "BN"
  bottom: "st/inception_3a/1x1"
  top: "st/inception_3a/1x1/bn"
  param {
    lr_mult: 0.0001
    decay_mult: 0.0
  }
  param {
    lr_mult: 0.0001
    decay_mult: 0.0
  }
  bn_param {
    scale_filler {
      type: "constant"
      value: 1.0
    }
    shift_filler {
      type: "constant"
      value: 0.0
    }
  }
}
layer {
  name: "st/inception_3a/relu_1x1"
  type: "ReLU"
  bottom: "st/inception_3a/1x1/bn"
  top: "st/inception_3a/1x1/bn"
}
layer {
  name: "st/inception_3a/3x3_reduce"
  type: "Convolution"
  bottom: "st/pool2/3x3_s2"
  top: "st/inception_3a/3x3_reduce"
  param {
    lr_mult: 0.0001
    decay_mult: 1.0
  }
  convolution_param {
    num_output: 64
    bias_term: false
    kernel_size: 1
    weight_filler {
      type: "xavier"
    }
  }
}
layer {
  name: "st/inception_3a/3x3_reduce/bn"
  type: "BN"
  bottom: "st/inception_3a/3x3_reduce"
  top: "st/inception_3a/3x3_reduce/bn"
  param {
    lr_mult: 0.0001
    decay_mult: 0.0
  }
  param {
    lr_mult: 0.0001
    decay_mult: 0.0
  }
  bn_param {
    scale_filler {
      type: "constant"
      value: 1.0
    }
    shift_filler {
      type: "constant"
      value: 0.0
    }
  }
}
layer {
  name: "st/inception_3a/relu_3x3_reduce"
  type: "ReLU"
  bottom: "st/inception_3a/3x3_reduce/bn"
  top: "st/inception_3a/3x3_reduce/bn"
}
layer {
  name: "st/inception_3a/3x3"
  type: "Convolution"
  bottom: "st/inception_3a/3x3_reduce/bn"
  top: "st/inception_3a/3x3"
  param {
    lr_mult: 0.0001
    decay_mult: 1.0
  }
  convolution_param {
    num_output: 64
    bias_term: false
    pad: 1
    kernel_size: 3
    weight_filler {
      type: "xavier"
    }
  }
}
layer {
  name: "st/inception_3a/3x3/bn"
  type: "BN"
  bottom: "st/inception_3a/3x3"
  top: "st/inception_3a/3x3/bn"
  param {
    lr_mult: 0.0001
    decay_mult: 0.0
  }
  param {
    lr_mult: 0.0001
    decay_mult: 0.0
  }
  bn_param {
    scale_filler {
      type: "constant"
      value: 1.0
    }
    shift_filler {
      type: "constant"
      value: 0.0
    }
  }
}
layer {
  name: "st/inception_3a/relu_3x3"
  type: "ReLU"
  bottom: "st/inception_3a/3x3/bn"
  top: "st/inception_3a/3x3/bn"
}
layer {
  name: "st/inception_3a/double3x3_reduce"
  type: "Convolution"
  bottom: "st/pool2/3x3_s2"
  top: "st/inception_3a/double3x3_reduce"
  param {
    lr_mult: 0.0001
    decay_mult: 1.0
  }
  convolution_param {
    num_output: 64
    bias_term: false
    kernel_size: 1
    weight_filler {
      type: "xavier"
    }
  }
}
layer {
  name: "st/inception_3a/double3x3_reduce/bn"
  type: "BN"
  bottom: "st/inception_3a/double3x3_reduce"
  top: "st/inception_3a/double3x3_reduce/bn"
  param {
    lr_mult: 0.0001
    decay_mult: 0.0
  }
  param {
    lr_mult: 0.0001
    decay_mult: 0.0
  }
  bn_param {
    scale_filler {
      type: "constant"
      value: 1.0
    }
    shift_filler {
      type: "constant"
      value: 0.0
    }
  }
}
layer {
  name: "st/inception_3a/relu_double3x3_reduce"
  type: "ReLU"
  bottom: "st/inception_3a/double3x3_reduce/bn"
  top: "st/inception_3a/double3x3_reduce/bn"
}
layer {
  name: "st/inception_3a/double3x3a"
  type: "Convolution"
  bottom: "st/inception_3a/double3x3_reduce/bn"
  top: "st/inception_3a/double3x3a"
  param {
    lr_mult: 0.0001
    decay_mult: 1.0
  }
  convolution_param {
    num_output: 96
    bias_term: false
    pad: 1
    kernel_size: 3
    weight_filler {
      type: "xavier"
    }
  }
}
layer {
  name: "st/inception_3a/double3x3a/bn"
  type: "BN"
  bottom: "st/inception_3a/double3x3a"
  top: "st/inception_3a/double3x3a/bn"
  param {
    lr_mult: 0.0001
    decay_mult: 0.0
  }
  param {
    lr_mult: 0.0001
    decay_mult: 0.0
  }
  bn_param {
    scale_filler {
      type: "constant"
      value: 1.0
    }
    shift_filler {
      type: "constant"
      value: 0.0
    }
  }
}
layer {
  name: "st/inception_3a/relu_double3x3a"
  type: "ReLU"
  bottom: "st/inception_3a/double3x3a/bn"
  top: "st/inception_3a/double3x3a/bn"
}
layer {
  name: "st/inception_3a/double3x3b"
  type: "Convolution"
  bottom: "st/inception_3a/double3x3a/bn"
  top: "st/inception_3a/double3x3b"
  param {
    lr_mult: 0.0001
    decay_mult: 1.0
  }
  convolution_param {
    num_output: 96
    bias_term: false
    pad: 1
    kernel_size: 3
    weight_filler {
      type: "xavier"
    }
  }
}
layer {
  name: "st/inception_3a/double3x3b/bn"
  type: "BN"
  bottom: "st/inception_3a/double3x3b"
  top: "st/inception_3a/double3x3b/bn"
  param {
    lr_mult: 0.0001
    decay_mult: 0.0
  }
  param {
    lr_mult: 0.0001
    decay_mult: 0.0
  }
  bn_param {
    scale_filler {
      type: "constant"
      value: 1.0
    }
    shift_filler {
      type: "constant"
      value: 0.0
    }
  }
}
layer {
  name: "st/inception_3a/relu_double3x3b"
  type: "ReLU"
  bottom: "st/inception_3a/double3x3b/bn"
  top: "st/inception_3a/double3x3b/bn"
}
layer {
  name: "st/inception_3a/pool"
  type: "Pooling"
  bottom: "st/pool2/3x3_s2"
  top: "st/inception_3a/pool"
  pooling_param {
    pool: AVE
    kernel_size: 3
    stride: 1
    pad: 1
  }
}
layer {
  name: "st/inception_3a/pool_proj"
  type: "Convolution"
  bottom: "st/inception_3a/pool"
  top: "st/inception_3a/pool_proj"
  param {
    lr_mult: 0.0001
    decay_mult: 1.0
  }
  convolution_param {
    num_output: 32
    bias_term: false
    kernel_size: 1
    weight_filler {
      type: "xavier"
    }
  }
}
layer {
  name: "st/inception_3a/pool_proj/bn"
  type: "BN"
  bottom: "st/inception_3a/pool_proj"
  top: "st/inception_3a/pool_proj/bn"
  param {
    lr_mult: 0.0001
    decay_mult: 0.0
  }
  param {
    lr_mult: 0.0001
    decay_mult: 0.0
  }
  bn_param {
    scale_filler {
      type: "constant"
      value: 1.0
    }
    shift_filler {
      type: "constant"
      value: 0.0
    }
  }
}
layer {
  name: "st/inception_3a/relu_pool_proj"
  type: "ReLU"
  bottom: "st/inception_3a/pool_proj/bn"
  top: "st/inception_3a/pool_proj/bn"
}
layer {
  name: "st/inception_3a/output"
  type: "Concat"
  bottom: "st/inception_3a/1x1/bn"
  bottom: "st/inception_3a/3x3/bn"
  bottom: "st/inception_3a/double3x3b/bn"
  bottom: "st/inception_3a/pool_proj/bn"
  top: "st/inception_3a/output"
}
layer {
  name: "st/inception_3b/1x1"
  type: "Convolution"
  bottom: "st/inception_3a/output"
  top: "st/inception_3b/1x1"
  param {
    lr_mult: 0.0001
    decay_mult: 1.0
  }
  convolution_param {
    num_output: 64
    bias_term: false
    kernel_size: 1
    weight_filler {
      type: "xavier"
    }
  }
}
layer {
  name: "st/inception_3b/1x1/bn"
  type: "BN"
  bottom: "st/inception_3b/1x1"
  top: "st/inception_3b/1x1/bn"
  param {
    lr_mult: 0.0001
    decay_mult: 0.0
  }
  param {
    lr_mult: 0.0001
    decay_mult: 0.0
  }
  bn_param {
    scale_filler {
      type: "constant"
      value: 1.0
    }
    shift_filler {
      type: "constant"
      value: 0.0
    }
  }
}
layer {
  name: "st/inception_3b/relu_1x1"
  type: "ReLU"
  bottom: "st/inception_3b/1x1/bn"
  top: "st/inception_3b/1x1/bn"
}
layer {
  name: "st/inception_3b/3x3_reduce"
  type: "Convolution"
  bottom: "st/inception_3a/output"
  top: "st/inception_3b/3x3_reduce"
  param {
    lr_mult: 0.0001
    decay_mult: 1.0
  }
  convolution_param {
    num_output: 64
    bias_term: false
    kernel_size: 1
    weight_filler {
      type: "xavier"
    }
  }
}
layer {
  name: "st/inception_3b/3x3_reduce/bn"
  type: "BN"
  bottom: "st/inception_3b/3x3_reduce"
  top: "st/inception_3b/3x3_reduce/bn"
  param {
    lr_mult: 0.0001
    decay_mult: 0.0
  }
  param {
    lr_mult: 0.0001
    decay_mult: 0.0
  }
  bn_param {
    scale_filler {
      type: "constant"
      value: 1.0
    }
    shift_filler {
      type: "constant"
      value: 0.0
    }
  }
}
layer {
  name: "st/inception_3b/relu_3x3_reduce"
  type: "ReLU"
  bottom: "st/inception_3b/3x3_reduce/bn"
  top: "st/inception_3b/3x3_reduce/bn"
}
layer {
  name: "st/inception_3b/3x3"
  type: "Convolution"
  bottom: "st/inception_3b/3x3_reduce/bn"
  top: "st/inception_3b/3x3"
  param {
    lr_mult: 0.0001
    decay_mult: 1.0
  }
  convolution_param {
    num_output: 96
    bias_term: false
    pad: 1
    kernel_size: 3
    weight_filler {
      type: "xavier"
    }
  }
}
layer {
  name: "st/inception_3b/3x3/bn"
  type: "BN"
  bottom: "st/inception_3b/3x3"
  top: "st/inception_3b/3x3/bn"
  param {
    lr_mult: 0.0001
    decay_mult: 0.0
  }
  param {
    lr_mult: 0.0001
    decay_mult: 0.0
  }
  bn_param {
    scale_filler {
      type: "constant"
      value: 1.0
    }
    shift_filler {
      type: "constant"
      value: 0.0
    }
  }
}
layer {
  name: "st/inception_3b/relu_3x3"
  type: "ReLU"
  bottom: "st/inception_3b/3x3/bn"
  top: "st/inception_3b/3x3/bn"
}
layer {
  name: "st/inception_3b/double3x3_reduce"
  type: "Convolution"
  bottom: "st/inception_3a/output"
  top: "st/inception_3b/double3x3_reduce"
  param {
    lr_mult: 0.0001
    decay_mult: 1.0
  }
  convolution_param {
    num_output: 64
    bias_term: false
    kernel_size: 1
    weight_filler {
      type: "xavier"
    }
  }
}
layer {
  name: "st/inception_3b/double3x3_reduce/bn"
  type: "BN"
  bottom: "st/inception_3b/double3x3_reduce"
  top: "st/inception_3b/double3x3_reduce/bn"
  param {
    lr_mult: 0.0001
    decay_mult: 0.0
  }
  param {
    lr_mult: 0.0001
    decay_mult: 0.0
  }
  bn_param {
    scale_filler {
      type: "constant"
      value: 1.0
    }
    shift_filler {
      type: "constant"
      value: 0.0
    }
  }
}
layer {
  name: "st/inception_3b/relu_double3x3_reduce"
  type: "ReLU"
  bottom: "st/inception_3b/double3x3_reduce/bn"
  top: "st/inception_3b/double3x3_reduce/bn"
}
layer {
  name: "st/inception_3b/double3x3a"
  type: "Convolution"
  bottom: "st/inception_3b/double3x3_reduce/bn"
  top: "st/inception_3b/double3x3a"
  param {
    lr_mult: 0.0001
    decay_mult: 1.0
  }
  convolution_param {
    num_output: 96
    bias_term: false
    pad: 1
    kernel_size: 3
    weight_filler {
      type: "xavier"
    }
  }
}
layer {
  name: "st/inception_3b/double3x3a/bn"
  type: "BN"
  bottom: "st/inception_3b/double3x3a"
  top: "st/inception_3b/double3x3a/bn"
  param {
    lr_mult: 0.0001
    decay_mult: 0.0
  }
  param {
    lr_mult: 0.0001
    decay_mult: 0.0
  }
  bn_param {
    scale_filler {
      type: "constant"
      value: 1.0
    }
    shift_filler {
      type: "constant"
      value: 0.0
    }
  }
}
layer {
  name: "st/inception_3b/relu_double3x3a"
  type: "ReLU"
  bottom: "st/inception_3b/double3x3a/bn"
  top: "st/inception_3b/double3x3a/bn"
}
layer {
  name: "st/inception_3b/double3x3b"
  type: "Convolution"
  bottom: "st/inception_3b/double3x3a/bn"
  top: "st/inception_3b/double3x3b"
  param {
    lr_mult: 0.0001
    decay_mult: 1.0
  }
  convolution_param {
    num_output: 96
    bias_term: false
    pad: 1
    kernel_size: 3
    weight_filler {
      type: "xavier"
    }
  }
}
layer {
  name: "st/inception_3b/double3x3b/bn"
  type: "BN"
  bottom: "st/inception_3b/double3x3b"
  top: "st/inception_3b/double3x3b/bn"
  param {
    lr_mult: 0.0001
    decay_mult: 0.0
  }
  param {
    lr_mult: 0.0001
    decay_mult: 0.0
  }
  bn_param {
    scale_filler {
      type: "constant"
      value: 1.0
    }
    shift_filler {
      type: "constant"
      value: 0.0
    }
  }
}
layer {
  name: "st/inception_3b/relu_double3x3b"
  type: "ReLU"
  bottom: "st/inception_3b/double3x3b/bn"
  top: "st/inception_3b/double3x3b/bn"
}
layer {
  name: "st/inception_3b/pool"
  type: "Pooling"
  bottom: "st/inception_3a/output"
  top: "st/inception_3b/pool"
  pooling_param {
    pool: AVE
    kernel_size: 3
    stride: 1
    pad: 1
  }
}
layer {
  name: "st/inception_3b/pool_proj"
  type: "Convolution"
  bottom: "st/inception_3b/pool"
  top: "st/inception_3b/pool_proj"
  param {
    lr_mult: 0.0001
    decay_mult: 1.0
  }
  convolution_param {
    num_output: 64
    bias_term: false
    kernel_size: 1
    weight_filler {
      type: "xavier"
    }
  }
}
layer {
  name: "st/inception_3b/pool_proj/bn"
  type: "BN"
  bottom: "st/inception_3b/pool_proj"
  top: "st/inception_3b/pool_proj/bn"
  param {
    lr_mult: 0.0001
    decay_mult: 0.0
  }
  param {
    lr_mult: 0.0001
    decay_mult: 0.0
  }
  bn_param {
    scale_filler {
      type: "constant"
      value: 1.0
    }
    shift_filler {
      type: "constant"
      value: 0.0
    }
  }
}
layer {
  name: "st/inception_3b/relu_pool_proj"
  type: "ReLU"
  bottom: "st/inception_3b/pool_proj/bn"
  top: "st/inception_3b/pool_proj/bn"
}
layer {
  name: "st/inception_3b/output"
  type: "Concat"
  bottom: "st/inception_3b/1x1/bn"
  bottom: "st/inception_3b/3x3/bn"
  bottom: "st/inception_3b/double3x3b/bn"
  bottom: "st/inception_3b/pool_proj/bn"
  top: "st/inception_3b/output"
}
layer {
  name: "st/inception_3c/3x3_reduce"
  type: "Convolution"
  bottom: "st/inception_3b/output"
  top: "st/inception_3c/3x3_reduce"
  param {
    lr_mult: 0.0001
    decay_mult: 1.0
  }
  convolution_param {
    num_output: 128
    bias_term: false
    kernel_size: 1
    weight_filler {
      type: "xavier"
    }
  }
}
layer {
  name: "st/inception_3c/3x3_reduce/bn"
  type: "BN"
  bottom: "st/inception_3c/3x3_reduce"
  top: "st/inception_3c/3x3_reduce/bn"
  param {
    lr_mult: 0.0001
    decay_mult: 0.0
  }
  param {
    lr_mult: 0.0001
    decay_mult: 0.0
  }
  bn_param {
    scale_filler {
      type: "constant"
      value: 1.0
    }
    shift_filler {
      type: "constant"
      value: 0.0
    }
  }
}
layer {
  name: "st/inception_3c/relu_3x3_reduce"
  type: "ReLU"
  bottom: "st/inception_3c/3x3_reduce/bn"
  top: "st/inception_3c/3x3_reduce/bn"
}
layer {
  name: "st/inception_3c/3x3"
  type: "Convolution"
  bottom: "st/inception_3c/3x3_reduce/bn"
  top: "st/inception_3c/3x3"
  param {
    lr_mult: 0.0001
    decay_mult: 1.0
  }
  convolution_param {
    num_output: 160
    bias_term: false
    pad: 1
    kernel_size: 3
    stride: 2
    weight_filler {
      type: "xavier"
    }
  }
}
layer {
  name: "st/inception_3c/3x3/bn"
  type: "BN"
  bottom: "st/inception_3c/3x3"
  top: "st/inception_3c/3x3/bn"
  param {
    lr_mult: 0.0001
    decay_mult: 0.0
  }
  param {
    lr_mult: 0.0001
    decay_mult: 0.0
  }
  bn_param {
    scale_filler {
      type: "constant"
      value: 1.0
    }
    shift_filler {
      type: "constant"
      value: 0.0
    }
  }
}
layer {
  name: "st/inception_3c/relu_3x3"
  type: "ReLU"
  bottom: "st/inception_3c/3x3/bn"
  top: "st/inception_3c/3x3/bn"
}
layer {
  name: "st/inception_3c/double3x3_reduce"
  type: "Convolution"
  bottom: "st/inception_3b/output"
  top: "st/inception_3c/double3x3_reduce"
  param {
    lr_mult: 0.0001
    decay_mult: 1.0
  }
  convolution_param {
    num_output: 64
    bias_term: false
    kernel_size: 1
    weight_filler {
      type: "xavier"
    }
  }
}
layer {
  name: "st/inception_3c/double3x3_reduce/bn"
  type: "BN"
  bottom: "st/inception_3c/double3x3_reduce"
  top: "st/inception_3c/double3x3_reduce/bn"
  param {
    lr_mult: 0.0001
    decay_mult: 0.0
  }
  param {
    lr_mult: 0.0001
    decay_mult: 0.0
  }
  bn_param {
    scale_filler {
      type: "constant"
      value: 1.0
    }
    shift_filler {
      type: "constant"
      value: 0.0
    }
  }
}
layer {
  name: "st/inception_3c/relu_double3x3_reduce"
  type: "ReLU"
  bottom: "st/inception_3c/double3x3_reduce/bn"
  top: "st/inception_3c/double3x3_reduce/bn"
}
layer {
  name: "st/inception_3c/double3x3a"
  type: "Convolution"
  bottom: "st/inception_3c/double3x3_reduce/bn"
  top: "st/inception_3c/double3x3a"
  param {
    lr_mult: 0.0001
    decay_mult: 1.0
  }
  convolution_param {
    num_output: 96
    bias_term: false
    pad: 1
    kernel_size: 3
    weight_filler {
      type: "xavier"
    }
  }
}
layer {
  name: "st/inception_3c/double3x3a/bn"
  type: "BN"
  bottom: "st/inception_3c/double3x3a"
  top: "st/inception_3c/double3x3a/bn"
  param {
    lr_mult: 0.0001
    decay_mult: 0.0
  }
  param {
    lr_mult: 0.0001
    decay_mult: 0.0
  }
  bn_param {
    scale_filler {
      type: "constant"
      value: 1.0
    }
    shift_filler {
      type: "constant"
      value: 0.0
    }
  }
}
layer {
  name: "st/inception_3c/relu_double3x3a"
  type: "ReLU"
  bottom: "st/inception_3c/double3x3a/bn"
  top: "st/inception_3c/double3x3a/bn"
}
layer {
  name: "st/inception_3c/double3x3b"
  type: "Convolution"
  bottom: "st/inception_3c/double3x3a/bn"
  top: "st/inception_3c/double3x3b"
  param {
    lr_mult: 0.0001
    decay_mult: 1.0
  }
  convolution_param {
    num_output: 96
    bias_term: false
    pad: 1
    kernel_size: 3
    stride: 2
    weight_filler {
      type: "xavier"
    }
  }
}
layer {
  name: "st/inception_3c/double3x3b/bn"
  type: "BN"
  bottom: "st/inception_3c/double3x3b"
  top: "st/inception_3c/double3x3b/bn"
  param {
    lr_mult: 0.0001
    decay_mult: 0.0
  }
  param {
    lr_mult: 0.0001
    decay_mult: 0.0
  }
  bn_param {
    scale_filler {
      type: "constant"
      value: 1.0
    }
    shift_filler {
      type: "constant"
      value: 0.0
    }
  }
}
layer {
  name: "st/inception_3c/relu_double3x3b"
  type: "ReLU"
  bottom: "st/inception_3c/double3x3b/bn"
  top: "st/inception_3c/double3x3b/bn"
}
layer {
  name: "st/inception_3c/pool/3x3_s2"
  type: "Pooling"
  bottom: "st/inception_3b/output"
  top: "st/inception_3c/pool/3x3_s2"
  pooling_param {
    pool: MAX
    kernel_size: 3
    stride: 2
  }
}
layer {
  name: "st/inception_3c/output"
  type: "Concat"
  bottom: "st/inception_3c/3x3/bn"
  bottom: "st/inception_3c/double3x3b/bn"
  bottom: "st/inception_3c/pool/3x3_s2"
  top: "st/inception_3c/output"
}
layer {
  name: "st/inception_4a/1x1"
  type: "Convolution"
  bottom: "st/inception_3c/output"
  top: "st/inception_4a/1x1"
  param {
    lr_mult: 0.0001
    decay_mult: 1.0
  }
  convolution_param {
    num_output: 224
    bias_term: false
    kernel_size: 1
    weight_filler {
      type: "xavier"
    }
  }
}
layer {
  name: "st/inception_4a/1x1/bn"
  type: "BN"
  bottom: "st/inception_4a/1x1"
  top: "st/inception_4a/1x1/bn"
  param {
    lr_mult: 0.0001
    decay_mult: 0.0
  }
  param {
    lr_mult: 0.0001
    decay_mult: 0.0
  }
  bn_param {
    scale_filler {
      type: "constant"
      value: 1.0
    }
    shift_filler {
      type: "constant"
      value: 0.0
    }
  }
}
layer {
  name: "st/inception_4a/relu_1x1"
  type: "ReLU"
  bottom: "st/inception_4a/1x1/bn"
  top: "st/inception_4a/1x1/bn"
}
layer {
  name: "st/inception_4a/3x3_reduce"
  type: "Convolution"
  bottom: "st/inception_3c/output"
  top: "st/inception_4a/3x3_reduce"
  param {
    lr_mult: 0.0001
    decay_mult: 1.0
  }
  convolution_param {
    num_output: 64
    bias_term: false
    kernel_size: 1
    weight_filler {
      type: "xavier"
    }
  }
}
layer {
  name: "st/inception_4a/3x3_reduce/bn"
  type: "BN"
  bottom: "st/inception_4a/3x3_reduce"
  top: "st/inception_4a/3x3_reduce/bn"
  param {
    lr_mult: 0.0001
    decay_mult: 0.0
  }
  param {
    lr_mult: 0.0001
    decay_mult: 0.0
  }
  bn_param {
    scale_filler {
      type: "constant"
      value: 1.0
    }
    shift_filler {
      type: "constant"
      value: 0.0
    }
  }
}
layer {
  name: "st/inception_4a/relu_3x3_reduce"
  type: "ReLU"
  bottom: "st/inception_4a/3x3_reduce/bn"
  top: "st/inception_4a/3x3_reduce/bn"
}
layer {
  name: "st/inception_4a/3x3"
  type: "Convolution"
  bottom: "st/inception_4a/3x3_reduce/bn"
  top: "st/inception_4a/3x3"
  param {
    lr_mult: 0.0001
    decay_mult: 1.0
  }
  convolution_param {
    num_output: 96
    bias_term: false
    pad: 1
    kernel_size: 3
    weight_filler {
      type: "xavier"
    }
  }
}
layer {
  name: "st/inception_4a/3x3/bn"
  type: "BN"
  bottom: "st/inception_4a/3x3"
  top: "st/inception_4a/3x3/bn"
  param {
    lr_mult: 0.0001
    decay_mult: 0.0
  }
  param {
    lr_mult: 0.0001
    decay_mult: 0.0
  }
  bn_param {
    scale_filler {
      type: "constant"
      value: 1.0
    }
    shift_filler {
      type: "constant"
      value: 0.0
    }
  }
}
layer {
  name: "st/inception_4a/relu_3x3"
  type: "ReLU"
  bottom: "st/inception_4a/3x3/bn"
  top: "st/inception_4a/3x3/bn"
}
layer {
  name: "st/inception_4a/double3x3_reduce"
  type: "Convolution"
  bottom: "st/inception_3c/output"
  top: "st/inception_4a/double3x3_reduce"
  param {
    lr_mult: 0.0001
    decay_mult: 1.0
  }
  convolution_param {
    num_output: 96
    bias_term: false
    kernel_size: 1
    weight_filler {
      type: "xavier"
    }
  }
}
layer {
  name: "st/inception_4a/double3x3_reduce/bn"
  type: "BN"
  bottom: "st/inception_4a/double3x3_reduce"
  top: "st/inception_4a/double3x3_reduce/bn"
  param {
    lr_mult: 0.0001
    decay_mult: 0.0
  }
  param {
    lr_mult: 0.0001
    decay_mult: 0.0
  }
  bn_param {
    scale_filler {
      type: "constant"
      value: 1.0
    }
    shift_filler {
      type: "constant"
      value: 0.0
    }
  }
}
layer {
  name: "st/inception_4a/relu_double3x3_reduce"
  type: "ReLU"
  bottom: "st/inception_4a/double3x3_reduce/bn"
  top: "st/inception_4a/double3x3_reduce/bn"
}
layer {
  name: "st/inception_4a/double3x3a"
  type: "Convolution"
  bottom: "st/inception_4a/double3x3_reduce/bn"
  top: "st/inception_4a/double3x3a"
  param {
    lr_mult: 0.0001
    decay_mult: 1.0
  }
  convolution_param {
    num_output: 128
    bias_term: false
    pad: 1
    kernel_size: 3
    weight_filler {
      type: "xavier"
    }
  }
}
layer {
  name: "st/inception_4a/double3x3a/bn"
  type: "BN"
  bottom: "st/inception_4a/double3x3a"
  top: "st/inception_4a/double3x3a/bn"
  param {
    lr_mult: 0.0001
    decay_mult: 0.0
  }
  param {
    lr_mult: 0.0001
    decay_mult: 0.0
  }
  bn_param {
    scale_filler {
      type: "constant"
      value: 1.0
    }
    shift_filler {
      type: "constant"
      value: 0.0
    }
  }
}
layer {
  name: "st/inception_4a/relu_double3x3a"
  type: "ReLU"
  bottom: "st/inception_4a/double3x3a/bn"
  top: "st/inception_4a/double3x3a/bn"
}
layer {
  name: "st/inception_4a/double3x3b"
  type: "Convolution"
  bottom: "st/inception_4a/double3x3a/bn"
  top: "st/inception_4a/double3x3b"
  param {
    lr_mult: 0.0001
    decay_mult: 1.0
  }
  convolution_param {
    num_output: 128
    bias_term: false
    pad: 1
    kernel_size: 3
    weight_filler {
      type: "xavier"
    }
  }
}
layer {
  name: "st/inception_4a/double3x3b/bn"
  type: "BN"
  bottom: "st/inception_4a/double3x3b"
  top: "st/inception_4a/double3x3b/bn"
  param {
    lr_mult: 0.0001
    decay_mult: 0.0
  }
  param {
    lr_mult: 0.0001
    decay_mult: 0.0
  }
  bn_param {
    scale_filler {
      type: "constant"
      value: 1.0
    }
    shift_filler {
      type: "constant"
      value: 0.0
    }
  }
}
layer {
  name: "st/inception_4a/relu_double3x3b"
  type: "ReLU"
  bottom: "st/inception_4a/double3x3b/bn"
  top: "st/inception_4a/double3x3b/bn"
}
layer {
  name: "st/inception_4a/pool"
  type: "Pooling"
  bottom: "st/inception_3c/output"
  top: "st/inception_4a/pool"
  pooling_param {
    pool: AVE
    kernel_size: 3
    stride: 1
    pad: 1
  }
}
layer {
  name: "st/inception_4a/pool_proj"
  type: "Convolution"
  bottom: "st/inception_4a/pool"
  top: "st/inception_4a/pool_proj"
  param {
    lr_mult: 0.0001
    decay_mult: 1.0
  }
  convolution_param {
    num_output: 128
    bias_term: false
    kernel_size: 1
    weight_filler {
      type: "xavier"
    }
  }
}
layer {
  name: "st/inception_4a/pool_proj/bn"
  type: "BN"
  bottom: "st/inception_4a/pool_proj"
  top: "st/inception_4a/pool_proj/bn"
  param {
    lr_mult: 0.0001
    decay_mult: 0.0
  }
  param {
    lr_mult: 0.0001
    decay_mult: 0.0
  }
  bn_param {
    scale_filler {
      type: "constant"
      value: 1.0
    }
    shift_filler {
      type: "constant"
      value: 0.0
    }
  }
}
layer {
  name: "st/inception_4a/relu_pool_proj"
  type: "ReLU"
  bottom: "st/inception_4a/pool_proj/bn"
  top: "st/inception_4a/pool_proj/bn"
}
layer {
  name: "st/inception_4a/output"
  type: "Concat"
  bottom: "st/inception_4a/1x1/bn"
  bottom: "st/inception_4a/3x3/bn"
  bottom: "st/inception_4a/double3x3b/bn"
  bottom: "st/inception_4a/pool_proj/bn"
  top: "st/inception_4a/output"
}
layer {
  name: "st/inception_4b/1x1"
  type: "Convolution"
  bottom: "st/inception_4a/output"
  top: "st/inception_4b/1x1"
  param {
    lr_mult: 0.0001
    decay_mult: 1.0
  }
  convolution_param {
    num_output: 192
    bias_term: false
    kernel_size: 1
    weight_filler {
      type: "xavier"
    }
  }
}
layer {
  name: "st/inception_4b/1x1/bn"
  type: "BN"
  bottom: "st/inception_4b/1x1"
  top: "st/inception_4b/1x1/bn"
  param {
    lr_mult: 0.0001
    decay_mult: 0.0
  }
  param {
    lr_mult: 0.0001
    decay_mult: 0.0
  }
  bn_param {
    scale_filler {
      type: "constant"
      value: 1.0
    }
    shift_filler {
      type: "constant"
      value: 0.0
    }
  }
}
layer {
  name: "st/inception_4b/relu_1x1"
  type: "ReLU"
  bottom: "st/inception_4b/1x1/bn"
  top: "st/inception_4b/1x1/bn"
}
layer {
  name: "st/inception_4b/3x3_reduce"
  type: "Convolution"
  bottom: "st/inception_4a/output"
  top: "st/inception_4b/3x3_reduce"
  param {
    lr_mult: 0.0001
    decay_mult: 1.0
  }
  convolution_param {
    num_output: 96
    bias_term: false
    kernel_size: 1
    weight_filler {
      type: "xavier"
    }
  }
}
layer {
  name: "st/inception_4b/3x3_reduce/bn"
  type: "BN"
  bottom: "st/inception_4b/3x3_reduce"
  top: "st/inception_4b/3x3_reduce/bn"
  param {
    lr_mult: 0.0001
    decay_mult: 0.0
  }
  param {
    lr_mult: 0.0001
    decay_mult: 0.0
  }
  bn_param {
    scale_filler {
      type: "constant"
      value: 1.0
    }
    shift_filler {
      type: "constant"
      value: 0.0
    }
  }
}
layer {
  name: "st/inception_4b/relu_3x3_reduce"
  type: "ReLU"
  bottom: "st/inception_4b/3x3_reduce/bn"
  top: "st/inception_4b/3x3_reduce/bn"
}
layer {
  name: "st/inception_4b/3x3"
  type: "Convolution"
  bottom: "st/inception_4b/3x3_reduce/bn"
  top: "st/inception_4b/3x3"
  param {
    lr_mult: 0.0001
    decay_mult: 1.0
  }
  convolution_param {
    num_output: 128
    bias_term: false
    pad: 1
    kernel_size: 3
    weight_filler {
      type: "xavier"
    }
  }
}
layer {
  name: "st/inception_4b/3x3/bn"
  type: "BN"
  bottom: "st/inception_4b/3x3"
  top: "st/inception_4b/3x3/bn"
  param {
    lr_mult: 0.0001
    decay_mult: 0.0
  }
  param {
    lr_mult: 0.0001
    decay_mult: 0.0
  }
  bn_param {
    scale_filler {
      type: "constant"
      value: 1.0
    }
    shift_filler {
      type: "constant"
      value: 0.0
    }
  }
}
layer {
  name: "st/inception_4b/relu_3x3"
  type: "ReLU"
  bottom: "st/inception_4b/3x3/bn"
  top: "st/inception_4b/3x3/bn"
}
layer {
  name: "st/inception_4b/double3x3_reduce"
  type: "Convolution"
  bottom: "st/inception_4a/output"
  top: "st/inception_4b/double3x3_reduce"
  param {
    lr_mult: 0.0001
    decay_mult: 1.0
  }
  convolution_param {
    num_output: 96
    bias_term: false
    kernel_size: 1
    weight_filler {
      type: "xavier"
    }
  }
}
layer {
  name: "st/inception_4b/double3x3_reduce/bn"
  type: "BN"
  bottom: "st/inception_4b/double3x3_reduce"
  top: "st/inception_4b/double3x3_reduce/bn"
  param {
    lr_mult: 0.0001
    decay_mult: 0.0
  }
  param {
    lr_mult: 0.0001
    decay_mult: 0.0
  }
  bn_param {
    scale_filler {
      type: "constant"
      value: 1.0
    }
    shift_filler {
      type: "constant"
      value: 0.0
    }
  }
}
layer {
  name: "st/inception_4b/relu_double3x3_reduce"
  type: "ReLU"
  bottom: "st/inception_4b/double3x3_reduce/bn"
  top: "st/inception_4b/double3x3_reduce/bn"
}
layer {
  name: "st/inception_4b/double3x3a"
  type: "Convolution"
  bottom: "st/inception_4b/double3x3_reduce/bn"
  top: "st/inception_4b/double3x3a"
  param {
    lr_mult: 0.0001
    decay_mult: 1.0
  }
  convolution_param {
    num_output: 128
    bias_term: false
    pad: 1
    kernel_size: 3
    weight_filler {
      type: "xavier"
    }
  }
}
layer {
  name: "st/inception_4b/double3x3a/bn"
  type: "BN"
  bottom: "st/inception_4b/double3x3a"
  top: "st/inception_4b/double3x3a/bn"
  param {
    lr_mult: 0.0001
    decay_mult: 0.0
  }
  param {
    lr_mult: 0.0001
    decay_mult: 0.0
  }
  bn_param {
    scale_filler {
      type: "constant"
      value: 1.0
    }
    shift_filler {
      type: "constant"
      value: 0.0
    }
  }
}
layer {
  name: "st/inception_4b/relu_double3x3a"
  type: "ReLU"
  bottom: "st/inception_4b/double3x3a/bn"
  top: "st/inception_4b/double3x3a/bn"
}
layer {
  name: "st/inception_4b/double3x3b"
  type: "Convolution"
  bottom: "st/inception_4b/double3x3a/bn"
  top: "st/inception_4b/double3x3b"
  param {
    lr_mult: 0.0001
    decay_mult: 1.0
  }
  convolution_param {
    num_output: 128
    bias_term: false
    pad: 1
    kernel_size: 3
    weight_filler {
      type: "xavier"
    }
  }
}
layer {
  name: "st/inception_4b/double3x3b/bn"
  type: "BN"
  bottom: "st/inception_4b/double3x3b"
  top: "st/inception_4b/double3x3b/bn"
  param {
    lr_mult: 0.0001
    decay_mult: 0.0
  }
  param {
    lr_mult: 0.0001
    decay_mult: 0.0
  }
  bn_param {
    scale_filler {
      type: "constant"
      value: 1.0
    }
    shift_filler {
      type: "constant"
      value: 0.0
    }
  }
}
layer {
  name: "st/inception_4b/relu_double3x3b"
  type: "ReLU"
  bottom: "st/inception_4b/double3x3b/bn"
  top: "st/inception_4b/double3x3b/bn"
}
layer {
  name: "st/inception_4b/pool"
  type: "Pooling"
  bottom: "st/inception_4a/output"
  top: "st/inception_4b/pool"
  pooling_param {
    pool: AVE
    kernel_size: 3
    stride: 1
    pad: 1
  }
}
layer {
  name: "st/inception_4b/pool_proj"
  type: "Convolution"
  bottom: "st/inception_4b/pool"
  top: "st/inception_4b/pool_proj"
  param {
    lr_mult: 0.0001
    decay_mult: 1.0
  }
  convolution_param {
    num_output: 128
    bias_term: false
    kernel_size: 1
    weight_filler {
      type: "xavier"
    }
  }
}
layer {
  name: "st/inception_4b/pool_proj/bn"
  type: "BN"
  bottom: "st/inception_4b/pool_proj"
  top: "st/inception_4b/pool_proj/bn"
  param {
    lr_mult: 0.0001
    decay_mult: 0.0
  }
  param {
    lr_mult: 0.0001
    decay_mult: 0.0
  }
  bn_param {
    scale_filler {
      type: "constant"
      value: 1.0
    }
    shift_filler {
      type: "constant"
      value: 0.0
    }
  }
}
layer {
  name: "st/inception_4b/relu_pool_proj"
  type: "ReLU"
  bottom: "st/inception_4b/pool_proj/bn"
  top: "st/inception_4b/pool_proj/bn"
}
layer {
  name: "st/inception_4b/output"
  type: "Concat"
  bottom: "st/inception_4b/1x1/bn"
  bottom: "st/inception_4b/3x3/bn"
  bottom: "st/inception_4b/double3x3b/bn"
  bottom: "st/inception_4b/pool_proj/bn"
  top: "st/inception_4b/output"
}
layer {
  name: "st/inception_4c/1x1"
  type: "Convolution"
  bottom: "st/inception_4b/output"
  top: "st/inception_4c/1x1"
  param {
    lr_mult: 0.0001
    decay_mult: 1.0
  }
  convolution_param {
    num_output: 160
    bias_term: false
    kernel_size: 1
    weight_filler {
      type: "xavier"
    }
  }
}
layer {
  name: "st/inception_4c/1x1/bn"
  type: "BN"
  bottom: "st/inception_4c/1x1"
  top: "st/inception_4c/1x1/bn"
  param {
    lr_mult: 0.0001
    decay_mult: 0.0
  }
  param {
    lr_mult: 0.0001
    decay_mult: 0.0
  }
  bn_param {
    scale_filler {
      type: "constant"
      value: 1.0
    }
    shift_filler {
      type: "constant"
      value: 0.0
    }
  }
}
layer {
  name: "st/inception_4c/relu_1x1"
  type: "ReLU"
  bottom: "st/inception_4c/1x1/bn"
  top: "st/inception_4c/1x1/bn"
}
layer {
  name: "st/inception_4c/3x3_reduce"
  type: "Convolution"
  bottom: "st/inception_4b/output"
  top: "st/inception_4c/3x3_reduce"
  param {
    lr_mult: 0.0001
    decay_mult: 1.0
  }
  convolution_param {
    num_output: 128
    bias_term: false
    kernel_size: 1
    weight_filler {
      type: "xavier"
    }
  }
}
layer {
  name: "st/inception_4c/3x3_reduce/bn"
  type: "BN"
  bottom: "st/inception_4c/3x3_reduce"
  top: "st/inception_4c/3x3_reduce/bn"
  param {
    lr_mult: 0.0001
    decay_mult: 0.0
  }
  param {
    lr_mult: 0.0001
    decay_mult: 0.0
  }
  bn_param {
    scale_filler {
      type: "constant"
      value: 1.0
    }
    shift_filler {
      type: "constant"
      value: 0.0
    }
  }
}
layer {
  name: "st/inception_4c/relu_3x3_reduce"
  type: "ReLU"
  bottom: "st/inception_4c/3x3_reduce/bn"
  top: "st/inception_4c/3x3_reduce/bn"
}
layer {
  name: "st/inception_4c/3x3"
  type: "Convolution"
  bottom: "st/inception_4c/3x3_reduce/bn"
  top: "st/inception_4c/3x3"
  param {
    lr_mult: 0.0001
    decay_mult: 1.0
  }
  convolution_param {
    num_output: 160
    bias_term: false
    pad: 1
    kernel_size: 3
    weight_filler {
      type: "xavier"
    }
  }
}
layer {
  name: "st/inception_4c/3x3/bn"
  type: "BN"
  bottom: "st/inception_4c/3x3"
  top: "st/inception_4c/3x3/bn"
  param {
    lr_mult: 0.0001
    decay_mult: 0.0
  }
  param {
    lr_mult: 0.0001
    decay_mult: 0.0
  }
  bn_param {
    scale_filler {
      type: "constant"
      value: 1.0
    }
    shift_filler {
      type: "constant"
      value: 0.0
    }
  }
}
layer {
  name: "st/inception_4c/relu_3x3"
  type: "ReLU"
  bottom: "st/inception_4c/3x3/bn"
  top: "st/inception_4c/3x3/bn"
}
layer {
  name: "st/inception_4c/double3x3_reduce"
  type: "Convolution"
  bottom: "st/inception_4b/output"
  top: "st/inception_4c/double3x3_reduce"
  param {
    lr_mult: 0.0001
    decay_mult: 1.0
  }
  convolution_param {
    num_output: 128
    bias_term: false
    kernel_size: 1
    weight_filler {
      type: "xavier"
    }
  }
}
layer {
  name: "st/inception_4c/double3x3_reduce/bn"
  type: "BN"
  bottom: "st/inception_4c/double3x3_reduce"
  top: "st/inception_4c/double3x3_reduce/bn"
  param {
    lr_mult: 0.0001
    decay_mult: 0.0
  }
  param {
    lr_mult: 0.0001
    decay_mult: 0.0
  }
  bn_param {
    scale_filler {
      type: "constant"
      value: 1.0
    }
    shift_filler {
      type: "constant"
      value: 0.0
    }
  }
}
layer {
  name: "st/inception_4c/relu_double3x3_reduce"
  type: "ReLU"
  bottom: "st/inception_4c/double3x3_reduce/bn"
  top: "st/inception_4c/double3x3_reduce/bn"
}
layer {
  name: "st/inception_4c/double3x3a"
  type: "Convolution"
  bottom: "st/inception_4c/double3x3_reduce/bn"
  top: "st/inception_4c/double3x3a"
  param {
    lr_mult: 0.0001
    decay_mult: 1.0
  }
  convolution_param {
    num_output: 160
    bias_term: false
    pad: 1
    kernel_size: 3
    weight_filler {
      type: "xavier"
    }
  }
}
layer {
  name: "st/inception_4c/double3x3a/bn"
  type: "BN"
  bottom: "st/inception_4c/double3x3a"
  top: "st/inception_4c/double3x3a/bn"
  param {
    lr_mult: 0.0001
    decay_mult: 0.0
  }
  param {
    lr_mult: 0.0001
    decay_mult: 0.0
  }
  bn_param {
    scale_filler {
      type: "constant"
      value: 1.0
    }
    shift_filler {
      type: "constant"
      value: 0.0
    }
  }
}
layer {
  name: "st/inception_4c/relu_double3x3a"
  type: "ReLU"
  bottom: "st/inception_4c/double3x3a/bn"
  top: "st/inception_4c/double3x3a/bn"
}
layer {
  name: "st/inception_4c/double3x3b"
  type: "Convolution"
  bottom: "st/inception_4c/double3x3a/bn"
  top: "st/inception_4c/double3x3b"
  param {
    lr_mult: 0.0001
    decay_mult: 1.0
  }
  convolution_param {
    num_output: 160
    bias_term: false
    pad: 1
    kernel_size: 3
    weight_filler {
      type: "xavier"
    }
  }
}
layer {
  name: "st/inception_4c/double3x3b/bn"
  type: "BN"
  bottom: "st/inception_4c/double3x3b"
  top: "st/inception_4c/double3x3b/bn"
  param {
    lr_mult: 0.0001
    decay_mult: 0.0
  }
  param {
    lr_mult: 0.0001
    decay_mult: 0.0
  }
  bn_param {
    scale_filler {
      type: "constant"
      value: 1.0
    }
    shift_filler {
      type: "constant"
      value: 0.0
    }
  }
}
layer {
  name: "st/inception_4c/relu_double3x3b"
  type: "ReLU"
  bottom: "st/inception_4c/double3x3b/bn"
  top: "st/inception_4c/double3x3b/bn"
}
layer {
  name: "st/inception_4c/pool"
  type: "Pooling"
  bottom: "st/inception_4b/output"
  top: "st/inception_4c/pool"
  pooling_param {
    pool: AVE
    kernel_size: 3
    stride: 1
    pad: 1
  }
}
layer {
  name: "st/inception_4c/pool_proj"
  type: "Convolution"
  bottom: "st/inception_4c/pool"
  top: "st/inception_4c/pool_proj"
  param {
    lr_mult: 0.0001
    decay_mult: 1.0
  }
  convolution_param {
    num_output: 128
    bias_term: false
    kernel_size: 1
    weight_filler {
      type: "xavier"
    }
  }
}
layer {
  name: "st/inception_4c/pool_proj/bn"
  type: "BN"
  bottom: "st/inception_4c/pool_proj"
  top: "st/inception_4c/pool_proj/bn"
  param {
    lr_mult: 0.0001
    decay_mult: 0.0
  }
  param {
    lr_mult: 0.0001
    decay_mult: 0.0
  }
  bn_param {
    scale_filler {
      type: "constant"
      value: 1.0
    }
    shift_filler {
      type: "constant"
      value: 0.0
    }
  }
}
layer {
  name: "st/inception_4c/relu_pool_proj"
  type: "ReLU"
  bottom: "st/inception_4c/pool_proj/bn"
  top: "st/inception_4c/pool_proj/bn"
}
layer {
  name: "st/inception_4c/output"
  type: "Concat"
  bottom: "st/inception_4c/1x1/bn"
  bottom: "st/inception_4c/3x3/bn"
  bottom: "st/inception_4c/double3x3b/bn"
  bottom: "st/inception_4c/pool_proj/bn"
  top: "st/inception_4c/output"
}
layer {
  name: "st/inception_4d/1x1"
  type: "Convolution"
  bottom: "st/inception_4c/output"
  top: "st/inception_4d/1x1"
  param {
    lr_mult: 0.0001
    decay_mult: 1.0
  }
  convolution_param {
    num_output: 96
    bias_term: false
    kernel_size: 1
    weight_filler {
      type: "xavier"
    }
  }
}
layer {
  name: "st/inception_4d/1x1/bn"
  type: "BN"
  bottom: "st/inception_4d/1x1"
  top: "st/inception_4d/1x1/bn"
  param {
    lr_mult: 0.0001
    decay_mult: 0.0
  }
  param {
    lr_mult: 0.0001
    decay_mult: 0.0
  }
  bn_param {
    scale_filler {
      type: "constant"
      value: 1.0
    }
    shift_filler {
      type: "constant"
      value: 0.0
    }
  }
}
layer {
  name: "st/inception_4d/relu_1x1"
  type: "ReLU"
  bottom: "st/inception_4d/1x1/bn"
  top: "st/inception_4d/1x1/bn"
}
layer {
  name: "st/inception_4d/3x3_reduce"
  type: "Convolution"
  bottom: "st/inception_4c/output"
  top: "st/inception_4d/3x3_reduce"
  param {
    lr_mult: 0.0001
    decay_mult: 1.0
  }
  convolution_param {
    num_output: 128
    bias_term: false
    kernel_size: 1
    weight_filler {
      type: "xavier"
    }
  }
}
layer {
  name: "st/inception_4d/3x3_reduce/bn"
  type: "BN"
  bottom: "st/inception_4d/3x3_reduce"
  top: "st/inception_4d/3x3_reduce/bn"
  param {
    lr_mult: 0.0001
    decay_mult: 0.0
  }
  param {
    lr_mult: 0.0001
    decay_mult: 0.0
  }
  bn_param {
    scale_filler {
      type: "constant"
      value: 1.0
    }
    shift_filler {
      type: "constant"
      value: 0.0
    }
  }
}
layer {
  name: "st/inception_4d/relu_3x3_reduce"
  type: "ReLU"
  bottom: "st/inception_4d/3x3_reduce/bn"
  top: "st/inception_4d/3x3_reduce/bn"
}
layer {
  name: "st/inception_4d/3x3"
  type: "Convolution"
  bottom: "st/inception_4d/3x3_reduce/bn"
  top: "st/inception_4d/3x3"
  param {
    lr_mult: 0.0001
    decay_mult: 1.0
  }
  convolution_param {
    num_output: 192
    bias_term: false
    pad: 1
    kernel_size: 3
    weight_filler {
      type: "xavier"
    }
  }
}
layer {
  name: "st/inception_4d/3x3/bn"
  type: "BN"
  bottom: "st/inception_4d/3x3"
  top: "st/inception_4d/3x3/bn"
  param {
    lr_mult: 0.0001
    decay_mult: 0.0
  }
  param {
    lr_mult: 0.0001
    decay_mult: 0.0
  }
  bn_param {
    scale_filler {
      type: "constant"
      value: 1.0
    }
    shift_filler {
      type: "constant"
      value: 0.0
    }
  }
}
layer {
  name: "st/inception_4d/relu_3x3"
  type: "ReLU"
  bottom: "st/inception_4d/3x3/bn"
  top: "st/inception_4d/3x3/bn"
}
layer {
  name: "st/inception_4d/double3x3_reduce"
  type: "Convolution"
  bottom: "st/inception_4c/output"
  top: "st/inception_4d/double3x3_reduce"
  param {
    lr_mult: 0.0001
    decay_mult: 1.0
  }
  convolution_param {
    num_output: 160
    bias_term: false
    kernel_size: 1
    weight_filler {
      type: "xavier"
    }
  }
}
layer {
  name: "st/inception_4d/double3x3_reduce/bn"
  type: "BN"
  bottom: "st/inception_4d/double3x3_reduce"
  top: "st/inception_4d/double3x3_reduce/bn"
  param {
    lr_mult: 0.0001
    decay_mult: 0.0
  }
  param {
    lr_mult: 0.0001
    decay_mult: 0.0
  }
  bn_param {
    scale_filler {
      type: "constant"
      value: 1.0
    }
    shift_filler {
      type: "constant"
      value: 0.0
    }
  }
}
layer {
  name: "st/inception_4d/relu_double3x3_reduce"
  type: "ReLU"
  bottom: "st/inception_4d/double3x3_reduce/bn"
  top: "st/inception_4d/double3x3_reduce/bn"
}
layer {
  name: "st/inception_4d/double3x3a"
  type: "Convolution"
  bottom: "st/inception_4d/double3x3_reduce/bn"
  top: "st/inception_4d/double3x3a"
  param {
    lr_mult: 0.0001
    decay_mult: 1.0
  }
  convolution_param {
    num_output: 192
    bias_term: false
    pad: 1
    kernel_size: 3
    weight_filler {
      type: "xavier"
    }
  }
}
layer {
  name: "st/inception_4d/double3x3a/bn"
  type: "BN"
  bottom: "st/inception_4d/double3x3a"
  top: "st/inception_4d/double3x3a/bn"
  param {
    lr_mult: 0.0001
    decay_mult: 0.0
  }
  param {
    lr_mult: 0.0001
    decay_mult: 0.0
  }
  bn_param {
    scale_filler {
      type: "constant"
      value: 1.0
    }
    shift_filler {
      type: "constant"
      value: 0.0
    }
  }
}
layer {
  name: "st/inception_4d/relu_double3x3a"
  type: "ReLU"
  bottom: "st/inception_4d/double3x3a/bn"
  top: "st/inception_4d/double3x3a/bn"
}
layer {
  name: "st/inception_4d/double3x3b"
  type: "Convolution"
  bottom: "st/inception_4d/double3x3a/bn"
  top: "st/inception_4d/double3x3b"
  param {
    lr_mult: 0.0001
    decay_mult: 1.0
  }
  convolution_param {
    num_output: 192
    bias_term: false
    pad: 1
    kernel_size: 3
    weight_filler {
      type: "xavier"
    }
  }
}
layer {
  name: "st/inception_4d/double3x3b/bn"
  type: "BN"
  bottom: "st/inception_4d/double3x3b"
  top: "st/inception_4d/double3x3b/bn"
  param {
    lr_mult: 0.0001
    decay_mult: 0.0
  }
  param {
    lr_mult: 0.0001
    decay_mult: 0.0
  }
  bn_param {
    scale_filler {
      type: "constant"
      value: 1.0
    }
    shift_filler {
      type: "constant"
      value: 0.0
    }
  }
}
layer {
  name: "st/inception_4d/relu_double3x3b"
  type: "ReLU"
  bottom: "st/inception_4d/double3x3b/bn"
  top: "st/inception_4d/double3x3b/bn"
}
layer {
  name: "st/inception_4d/pool"
  type: "Pooling"
  bottom: "st/inception_4c/output"
  top: "st/inception_4d/pool"
  pooling_param {
    pool: AVE
    kernel_size: 3
    stride: 1
    pad: 1
  }
}
layer {
  name: "st/inception_4d/pool_proj"
  type: "Convolution"
  bottom: "st/inception_4d/pool"
  top: "st/inception_4d/pool_proj"
  param {
    lr_mult: 0.0001
    decay_mult: 1.0
  }
  convolution_param {
    num_output: 128
    bias_term: false
    kernel_size: 1
    weight_filler {
      type: "xavier"
    }
  }
}
layer {
  name: "st/inception_4d/pool_proj/bn"
  type: "BN"
  bottom: "st/inception_4d/pool_proj"
  top: "st/inception_4d/pool_proj/bn"
  param {
    lr_mult: 0.0001
    decay_mult: 0.0
  }
  param {
    lr_mult: 0.0001
    decay_mult: 0.0
  }
  bn_param {
    scale_filler {
      type: "constant"
      value: 1.0
    }
    shift_filler {
      type: "constant"
      value: 0.0
    }
  }
}
layer {
  name: "st/inception_4d/relu_pool_proj"
  type: "ReLU"
  bottom: "st/inception_4d/pool_proj/bn"
  top: "st/inception_4d/pool_proj/bn"
}
layer {
  name: "st/inception_4d/output"
  type: "Concat"
  bottom: "st/inception_4d/1x1/bn"
  bottom: "st/inception_4d/3x3/bn"
  bottom: "st/inception_4d/double3x3b/bn"
  bottom: "st/inception_4d/pool_proj/bn"
  top: "st/inception_4d/output"
}
layer {
  name: "st/inception_4e/3x3_reduce"
  type: "Convolution"
  bottom: "st/inception_4d/output"
  top: "st/inception_4e/3x3_reduce"
  param {
    lr_mult: 0.0001
    decay_mult: 1.0
  }
  convolution_param {
    num_output: 128
    bias_term: false
    kernel_size: 1
    weight_filler {
      type: "xavier"
    }
  }
}
layer {
  name: "st/inception_4e/3x3_reduce/bn"
  type: "BN"
  bottom: "st/inception_4e/3x3_reduce"
  top: "st/inception_4e/3x3_reduce/bn"
  param {
    lr_mult: 0.0001
    decay_mult: 0.0
  }
  param {
    lr_mult: 0.0001
    decay_mult: 0.0
  }
  bn_param {
    scale_filler {
      type: "constant"
      value: 1.0
    }
    shift_filler {
      type: "constant"
      value: 0.0
    }
  }
}
layer {
  name: "st/inception_4e/relu_3x3_reduce"
  type: "ReLU"
  bottom: "st/inception_4e/3x3_reduce/bn"
  top: "st/inception_4e/3x3_reduce/bn"
}
layer {
  name: "st/inception_4e/3x3"
  type: "Convolution"
  bottom: "st/inception_4e/3x3_reduce/bn"
  top: "st/inception_4e/3x3"
  param {
    lr_mult: 0.0001
    decay_mult: 1.0
  }
  convolution_param {
    num_output: 192
    bias_term: false
    pad: 1
    kernel_size: 3
    stride: 2
    weight_filler {
      type: "xavier"
    }
  }
}
layer {
  name: "st/inception_4e/3x3/bn"
  type: "BN"
  bottom: "st/inception_4e/3x3"
  top: "st/inception_4e/3x3/bn"
  param {
    lr_mult: 0.0001
    decay_mult: 0.0
  }
  param {
    lr_mult: 0.0001
    decay_mult: 0.0
  }
  bn_param {
    scale_filler {
      type: "constant"
      value: 1.0
    }
    shift_filler {
      type: "constant"
      value: 0.0
    }
  }
}
layer {
  name: "st/inception_4e/relu_3x3"
  type: "ReLU"
  bottom: "st/inception_4e/3x3/bn"
  top: "st/inception_4e/3x3/bn"
}
layer {
  name: "st/inception_4e/double3x3_reduce"
  type: "Convolution"
  bottom: "st/inception_4d/output"
  top: "st/inception_4e/double3x3_reduce"
  param {
    lr_mult: 0.0001
    decay_mult: 1.0
  }
  convolution_param {
    num_output: 192
    bias_term: false
    kernel_size: 1
    weight_filler {
      type: "xavier"
    }
  }
}
layer {
  name: "st/inception_4e/double3x3_reduce/bn"
  type: "BN"
  bottom: "st/inception_4e/double3x3_reduce"
  top: "st/inception_4e/double3x3_reduce/bn"
  param {
    lr_mult: 0.0001
    decay_mult: 0.0
  }
  param {
    lr_mult: 0.0001
    decay_mult: 0.0
  }
  bn_param {
    scale_filler {
      type: "constant"
      value: 1.0
    }
    shift_filler {
      type: "constant"
      value: 0.0
    }
  }
}
layer {
  name: "st/inception_4e/relu_double3x3_reduce"
  type: "ReLU"
  bottom: "st/inception_4e/double3x3_reduce/bn"
  top: "st/inception_4e/double3x3_reduce/bn"
}
layer {
  name: "st/inception_4e/double3x3a"
  type: "Convolution"
  bottom: "st/inception_4e/double3x3_reduce/bn"
  top: "st/inception_4e/double3x3a"
  param {
    lr_mult: 0.0001
    decay_mult: 1.0
  }
  convolution_param {
    num_output: 256
    bias_term: false
    pad: 1
    kernel_size: 3
    weight_filler {
      type: "xavier"
    }
  }
}
layer {
  name: "st/inception_4e/double3x3a/bn"
  type: "BN"
  bottom: "st/inception_4e/double3x3a"
  top: "st/inception_4e/double3x3a/bn"
  param {
    lr_mult: 0.0001
    decay_mult: 0.0
  }
  param {
    lr_mult: 0.0001
    decay_mult: 0.0
  }
  bn_param {
    scale_filler {
      type: "constant"
      value: 1.0
    }
    shift_filler {
      type: "constant"
      value: 0.0
    }
  }
}
layer {
  name: "st/inception_4e/relu_double3x3a"
  type: "ReLU"
  bottom: "st/inception_4e/double3x3a/bn"
  top: "st/inception_4e/double3x3a/bn"
}
layer {
  name: "st/inception_4e/double3x3b"
  type: "Convolution"
  bottom: "st/inception_4e/double3x3a/bn"
  top: "st/inception_4e/double3x3b"
  param {
    lr_mult: 0.0001
    decay_mult: 1.0
  }
  convolution_param {
    num_output: 256
    bias_term: false
    pad: 1
    kernel_size: 3
    stride: 2
    weight_filler {
      type: "xavier"
    }
  }
}
layer {
  name: "st/inception_4e/double3x3b/bn"
  type: "BN"
  bottom: "st/inception_4e/double3x3b"
  top: "st/inception_4e/double3x3b/bn"
  param {
    lr_mult: 0.0001
    decay_mult: 0.0
  }
  param {
    lr_mult: 0.0001
    decay_mult: 0.0
  }
  bn_param {
    scale_filler {
      type: "constant"
      value: 1.0
    }
    shift_filler {
      type: "constant"
      value: 0.0
    }
  }
}
layer {
  name: "st/inception_4e/relu_double3x3b"
  type: "ReLU"
  bottom: "st/inception_4e/double3x3b/bn"
  top: "st/inception_4e/double3x3b/bn"
}
layer {
  name: "st/inception_4e/pool/3x3_s2"
  type: "Pooling"
  bottom: "st/inception_4d/output"
  top: "st/inception_4e/pool/3x3_s2"
  pooling_param {
    pool: MAX
    kernel_size: 3
    stride: 2
  }
}
layer {
  name: "st/inception_4e/output"
  type: "Concat"
  bottom: "st/inception_4e/3x3/bn"
  bottom: "st/inception_4e/double3x3b/bn"
  bottom: "st/inception_4e/pool/3x3_s2"
  top: "st/inception_4e/output"
}
layer {
  name: "st/inception_5a/1x1"
  type: "Convolution"
  bottom: "st/inception_4e/output"
  top: "st/inception_5a/1x1"
  param {
    lr_mult: 0.0001
    decay_mult: 1.0
  }
  convolution_param {
    num_output: 352
    bias_term: false
    kernel_size: 1
    weight_filler {
      type: "xavier"
    }
  }
}
layer {
  name: "st/inception_5a/1x1/bn"
  type: "BN"
  bottom: "st/inception_5a/1x1"
  top: "st/inception_5a/1x1/bn"
  param {
    lr_mult: 0.0001
    decay_mult: 0.0
  }
  param {
    lr_mult: 0.0001
    decay_mult: 0.0
  }
  bn_param {
    scale_filler {
      type: "constant"
      value: 1.0
    }
    shift_filler {
      type: "constant"
      value: 0.0
    }
  }
}
layer {
  name: "st/inception_5a/relu_1x1"
  type: "ReLU"
  bottom: "st/inception_5a/1x1/bn"
  top: "st/inception_5a/1x1/bn"
}
layer {
  name: "st/inception_5a/3x3_reduce"
  type: "Convolution"
  bottom: "st/inception_4e/output"
  top: "st/inception_5a/3x3_reduce"
  param {
    lr_mult: 0.0001
    decay_mult: 1.0
  }
  convolution_param {
    num_output: 192
    bias_term: false
    kernel_size: 1
    weight_filler {
      type: "xavier"
    }
  }
}
layer {
  name: "st/inception_5a/3x3_reduce/bn"
  type: "BN"
  bottom: "st/inception_5a/3x3_reduce"
  top: "st/inception_5a/3x3_reduce/bn"
  param {
    lr_mult: 0.0001
    decay_mult: 0.0
  }
  param {
    lr_mult: 0.0001
    decay_mult: 0.0
  }
  bn_param {
    scale_filler {
      type: "constant"
      value: 1.0
    }
    shift_filler {
      type: "constant"
      value: 0.0
    }
  }
}
layer {
  name: "st/inception_5a/relu_3x3_reduce"
  type: "ReLU"
  bottom: "st/inception_5a/3x3_reduce/bn"
  top: "st/inception_5a/3x3_reduce/bn"
}
layer {
  name: "st/inception_5a/3x3"
  type: "Convolution"
  bottom: "st/inception_5a/3x3_reduce/bn"
  top: "st/inception_5a/3x3"
  param {
    lr_mult: 0.0001
    decay_mult: 1.0
  }
  convolution_param {
    num_output: 320
    bias_term: false
    pad: 1
    kernel_size: 3
    weight_filler {
      type: "xavier"
    }
  }
}
layer {
  name: "st/inception_5a/3x3/bn"
  type: "BN"
  bottom: "st/inception_5a/3x3"
  top: "st/inception_5a/3x3/bn"
  param {
    lr_mult: 0.0001
    decay_mult: 0.0
  }
  param {
    lr_mult: 0.0001
    decay_mult: 0.0
  }
  bn_param {
    scale_filler {
      type: "constant"
      value: 1.0
    }
    shift_filler {
      type: "constant"
      value: 0.0
    }
  }
}
layer {
  name: "st/inception_5a/relu_3x3"
  type: "ReLU"
  bottom: "st/inception_5a/3x3/bn"
  top: "st/inception_5a/3x3/bn"
}
layer {
  name: "st/inception_5a/double3x3_reduce"
  type: "Convolution"
  bottom: "st/inception_4e/output"
  top: "st/inception_5a/double3x3_reduce"
  param {
    lr_mult: 0.0001
    decay_mult: 1.0
  }
  convolution_param {
    num_output: 160
    bias_term: false
    kernel_size: 1
    weight_filler {
      type: "xavier"
    }
  }
}
layer {
  name: "st/inception_5a/double3x3_reduce/bn"
  type: "BN"
  bottom: "st/inception_5a/double3x3_reduce"
  top: "st/inception_5a/double3x3_reduce/bn"
  param {
    lr_mult: 0.0001
    decay_mult: 0.0
  }
  param {
    lr_mult: 0.0001
    decay_mult: 0.0
  }
  bn_param {
    scale_filler {
      type: "constant"
      value: 1.0
    }
    shift_filler {
      type: "constant"
      value: 0.0
    }
  }
}
layer {
  name: "st/inception_5a/relu_double3x3_reduce"
  type: "ReLU"
  bottom: "st/inception_5a/double3x3_reduce/bn"
  top: "st/inception_5a/double3x3_reduce/bn"
}
layer {
  name: "st/inception_5a/double3x3a"
  type: "Convolution"
  bottom: "st/inception_5a/double3x3_reduce/bn"
  top: "st/inception_5a/double3x3a"
  param {
    lr_mult: 0.0001
    decay_mult: 1.0
  }
  convolution_param {
    num_output: 224
    bias_term: false
    pad: 1
    kernel_size: 3
    weight_filler {
      type: "xavier"
    }
  }
}
layer {
  name: "st/inception_5a/double3x3a/bn"
  type: "BN"
  bottom: "st/inception_5a/double3x3a"
  top: "st/inception_5a/double3x3a/bn"
  param {
    lr_mult: 0.0001
    decay_mult: 0.0
  }
  param {
    lr_mult: 0.0001
    decay_mult: 0.0
  }
  bn_param {
    scale_filler {
      type: "constant"
      value: 1.0
    }
    shift_filler {
      type: "constant"
      value: 0.0
    }
  }
}
layer {
  name: "st/inception_5a/relu_double3x3a"
  type: "ReLU"
  bottom: "st/inception_5a/double3x3a/bn"
  top: "st/inception_5a/double3x3a/bn"
}
layer {
  name: "st/inception_5a/double3x3b"
  type: "Convolution"
  bottom: "st/inception_5a/double3x3a/bn"
  top: "st/inception_5a/double3x3b"
  param {
    lr_mult: 0.0001
    decay_mult: 1.0
  }
  convolution_param {
    num_output: 224
    bias_term: false
    pad: 1
    kernel_size: 3
    weight_filler {
      type: "xavier"
    }
  }
}
layer {
  name: "st/inception_5a/double3x3b/bn"
  type: "BN"
  bottom: "st/inception_5a/double3x3b"
  top: "st/inception_5a/double3x3b/bn"
  param {
    lr_mult: 0.0001
    decay_mult: 0.0
  }
  param {
    lr_mult: 0.0001
    decay_mult: 0.0
  }
  bn_param {
    scale_filler {
      type: "constant"
      value: 1.0
    }
    shift_filler {
      type: "constant"
      value: 0.0
    }
  }
}
layer {
  name: "st/inception_5a/relu_double3x3b"
  type: "ReLU"
  bottom: "st/inception_5a/double3x3b/bn"
  top: "st/inception_5a/double3x3b/bn"
}
layer {
  name: "st/inception_5a/pool"
  type: "Pooling"
  bottom: "st/inception_4e/output"
  top: "st/inception_5a/pool"
  pooling_param {
    pool: AVE
    kernel_size: 3
    stride: 1
    pad: 1
  }
}
layer {
  name: "st/inception_5a/pool_proj"
  type: "Convolution"
  bottom: "st/inception_5a/pool"
  top: "st/inception_5a/pool_proj"
  param {
    lr_mult: 0.0001
    decay_mult: 1.0
  }
  convolution_param {
    num_output: 128
    bias_term: false
    kernel_size: 1
    weight_filler {
      type: "xavier"
    }
  }
}
layer {
  name: "st/inception_5a/pool_proj/bn"
  type: "BN"
  bottom: "st/inception_5a/pool_proj"
  top: "st/inception_5a/pool_proj/bn"
  param {
    lr_mult: 0.0001
    decay_mult: 0.0
  }
  param {
    lr_mult: 0.0001
    decay_mult: 0.0
  }
  bn_param {
    scale_filler {
      type: "constant"
      value: 1.0
    }
    shift_filler {
      type: "constant"
      value: 0.0
    }
  }
}
layer {
  name: "st/inception_5a/relu_pool_proj"
  type: "ReLU"
  bottom: "st/inception_5a/pool_proj/bn"
  top: "st/inception_5a/pool_proj/bn"
}
layer {
  name: "st/inception_5a/output"
  type: "Concat"
  bottom: "st/inception_5a/1x1/bn"
  bottom: "st/inception_5a/3x3/bn"
  bottom: "st/inception_5a/double3x3b/bn"
  bottom: "st/inception_5a/pool_proj/bn"
  top: "st/inception_5a/output"
}
layer {
  name: "st/inception_5b/1x1"
  type: "Convolution"
  bottom: "st/inception_5a/output"
  top: "st/inception_5b/1x1"
  param {
    lr_mult: 0.0001
    decay_mult: 1.0
  }
  convolution_param {
    num_output: 352
    bias_term: false
    kernel_size: 1
    weight_filler {
      type: "xavier"
    }
  }
}
layer {
  name: "st/inception_5b/1x1/bn"
  type: "BN"
  bottom: "st/inception_5b/1x1"
  top: "st/inception_5b/1x1/bn"
  param {
    lr_mult: 0.0001
    decay_mult: 0.0
  }
  param {
    lr_mult: 0.0001
    decay_mult: 0.0
  }
  bn_param {
    scale_filler {
      type: "constant"
      value: 1.0
    }
    shift_filler {
      type: "constant"
      value: 0.0
    }
  }
}
layer {
  name: "st/inception_5b/relu_1x1"
  type: "ReLU"
  bottom: "st/inception_5b/1x1/bn"
  top: "st/inception_5b/1x1/bn"
}
layer {
  name: "st/inception_5b/3x3_reduce"
  type: "Convolution"
  bottom: "st/inception_5a/output"
  top: "st/inception_5b/3x3_reduce"
  param {
    lr_mult: 0.0001
    decay_mult: 1.0
  }
  convolution_param {
    num_output: 192
    bias_term: false
    kernel_size: 1
    weight_filler {
      type: "xavier"
    }
  }
}
layer {
  name: "st/inception_5b/3x3_reduce/bn"
  type: "BN"
  bottom: "st/inception_5b/3x3_reduce"
  top: "st/inception_5b/3x3_reduce/bn"
  param {
    lr_mult: 0.0001
    decay_mult: 0.0
  }
  param {
    lr_mult: 0.0001
    decay_mult: 0.0
  }
  bn_param {
    scale_filler {
      type: "constant"
      value: 1.0
    }
    shift_filler {
      type: "constant"
      value: 0.0
    }
  }
}
layer {
  name: "st/inception_5b/relu_3x3_reduce"
  type: "ReLU"
  bottom: "st/inception_5b/3x3_reduce/bn"
  top: "st/inception_5b/3x3_reduce/bn"
}
layer {
  name: "st/inception_5b/3x3"
  type: "Convolution"
  bottom: "st/inception_5b/3x3_reduce/bn"
  top: "st/inception_5b/3x3"
  param {
    lr_mult: 0.0001
    decay_mult: 1.0
  }
  convolution_param {
    num_output: 320
    bias_term: false
    pad: 1
    kernel_size: 3
    weight_filler {
      type: "xavier"
    }
  }
}
layer {
  name: "st/inception_5b/3x3/bn"
  type: "BN"
  bottom: "st/inception_5b/3x3"
  top: "st/inception_5b/3x3/bn"
  param {
    lr_mult: 0.0001
    decay_mult: 0.0
  }
  param {
    lr_mult: 0.0001
    decay_mult: 0.0
  }
  bn_param {
    scale_filler {
      type: "constant"
      value: 1.0
    }
    shift_filler {
      type: "constant"
      value: 0.0
    }
  }
}
layer {
  name: "st/inception_5b/relu_3x3"
  type: "ReLU"
  bottom: "st/inception_5b/3x3/bn"
  top: "st/inception_5b/3x3/bn"
}
layer {
  name: "st/inception_5b/double3x3_reduce"
  type: "Convolution"
  bottom: "st/inception_5a/output"
  top: "st/inception_5b/double3x3_reduce"
  param {
    lr_mult: 0.0001
    decay_mult: 1.0
  }
  convolution_param {
    num_output: 192
    bias_term: false
    kernel_size: 1
    weight_filler {
      type: "xavier"
    }
  }
}
layer {
  name: "st/inception_5b/double3x3_reduce/bn"
  type: "BN"
  bottom: "st/inception_5b/double3x3_reduce"
  top: "st/inception_5b/double3x3_reduce/bn"
  param {
    lr_mult: 0.0001
    decay_mult: 0.0
  }
  param {
    lr_mult: 0.0001
    decay_mult: 0.0
  }
  bn_param {
    scale_filler {
      type: "constant"
      value: 1.0
    }
    shift_filler {
      type: "constant"
      value: 0.0
    }
  }
}
layer {
  name: "st/inception_5b/relu_double3x3_reduce"
  type: "ReLU"
  bottom: "st/inception_5b/double3x3_reduce/bn"
  top: "st/inception_5b/double3x3_reduce/bn"
}
layer {
  name: "st/inception_5b/double3x3a"
  type: "Convolution"
  bottom: "st/inception_5b/double3x3_reduce/bn"
  top: "st/inception_5b/double3x3a"
  param {
    lr_mult: 0.0001
    decay_mult: 1.0
  }
  convolution_param {
    num_output: 224
    bias_term: false
    pad: 1
    kernel_size: 3
    weight_filler {
      type: "xavier"
    }
  }
}
layer {
  name: "st/inception_5b/double3x3a/bn"
  type: "BN"
  bottom: "st/inception_5b/double3x3a"
  top: "st/inception_5b/double3x3a/bn"
  param {
    lr_mult: 0.0001
    decay_mult: 0.0
  }
  param {
    lr_mult: 0.0001
    decay_mult: 0.0
  }
  bn_param {
    scale_filler {
      type: "constant"
      value: 1.0
    }
    shift_filler {
      type: "constant"
      value: 0.0
    }
  }
}
layer {
  name: "st/inception_5b/relu_double3x3a"
  type: "ReLU"
  bottom: "st/inception_5b/double3x3a/bn"
  top: "st/inception_5b/double3x3a/bn"
}
layer {
  name: "st/inception_5b/double3x3b"
  type: "Convolution"
  bottom: "st/inception_5b/double3x3a/bn"
  top: "st/inception_5b/double3x3b"
  param {
    lr_mult: 0.0001
    decay_mult: 1.0
  }
  convolution_param {
    num_output: 224
    bias_term: false
    pad: 1
    kernel_size: 3
    weight_filler {
      type: "xavier"
    }
  }
}
layer {
  name: "st/inception_5b/double3x3b/bn"
  type: "BN"
  bottom: "st/inception_5b/double3x3b"
  top: "st/inception_5b/double3x3b/bn"
  param {
    lr_mult: 0.0001
    decay_mult: 0.0
  }
  param {
    lr_mult: 0.0001
    decay_mult: 0.0
  }
  bn_param {
    scale_filler {
      type: "constant"
      value: 1.0
    }
    shift_filler {
      type: "constant"
      value: 0.0
    }
  }
}
layer {
  name: "st/inception_5b/relu_double3x3b"
  type: "ReLU"
  bottom: "st/inception_5b/double3x3b/bn"
  top: "st/inception_5b/double3x3b/bn"
}
layer {
  name: "st/inception_5b/pool"
  type: "Pooling"
  bottom: "st/inception_5a/output"
  top: "st/inception_5b/pool"
  pooling_param {
    pool: MAX
    kernel_size: 3
    stride: 1
    pad: 1
  }
}
layer {
  name: "st/inception_5b/pool_proj"
  type: "Convolution"
  bottom: "st/inception_5b/pool"
  top: "st/inception_5b/pool_proj"
  param {
    lr_mult: 0.0001
    decay_mult: 1.0
  }
  convolution_param {
    num_output: 128
    bias_term: false
    kernel_size: 1
    weight_filler {
      type: "xavier"
    }
  }
}
layer {
  name: "st/inception_5b/pool_proj/bn"
  type: "BN"
  bottom: "st/inception_5b/pool_proj"
  top: "st/inception_5b/pool_proj/bn"
  param {
    lr_mult: 0.0001
    decay_mult: 0.0
  }
  param {
    lr_mult: 0.0001
    decay_mult: 0.0
  }
  bn_param {
    scale_filler {
      type: "constant"
      value: 1.0
    }
    shift_filler {
      type: "constant"
      value: 0.0
    }
  }
}
layer {
  name: "st/inception_5b/relu_pool_proj"
  type: "ReLU"
  bottom: "st/inception_5b/pool_proj/bn"
  top: "st/inception_5b/pool_proj/bn"
}
layer {
  name: "st/inception_5b/output"
  type: "Concat"
  bottom: "st/inception_5b/1x1/bn"
  bottom: "st/inception_5b/3x3/bn"
  bottom: "st/inception_5b/double3x3b/bn"
  bottom: "st/inception_5b/pool_proj/bn"
  top: "st/inception_5b/output"
}
layer {
  name: "st/final_conv"
  type: "Convolution"
  bottom: "st/inception_5b/output"
  top: "st/final_conv"
  param {
    lr_mult: 0.0001
    decay_mult: 0.0
  }
  param {
    lr_mult: 0.0001
    decay_mult: 0.0
  }
  convolution_param {
    num_output: 128
    kernel_size: 1
    weight_filler {
      type: "gaussian"
      std: 0.001
    }
    bias_filler {
      type: "constant"
      value: 0.001
    }
  }
}
layer {
  name: "st/final_conv/bn"
  type: "BN"
  bottom: "st/final_conv"
  top: "st/final_conv/bn"
  param {
    lr_mult: 0.0001
    decay_mult: 0.0
  }
  param {
    lr_mult: 0.0001
    decay_mult: 0.0
  }
  bn_param {
    scale_filler {
      type: "constant"
      value: 1.0
    }
    shift_filler {
      type: "constant"
      value: 0.0
    }
  }
}
layer {
  name: "st/final_conv/relu"
  type: "ReLU"
  bottom: "st/final_conv/bn"
  top: "st/final_conv/bn"
}
layer {
  name: "st/final_ip"
  type: "InnerProduct"
  bottom: "st/final_conv/bn"
  top: "st/final_ip"
  param {
    lr_mult: 0.0001
  }
  param {
    lr_mult: 0.0001
  }
  inner_product_param {
    num_output: 128
    weight_filler {
      type: "gaussian"
      std: 0.001
    }
    bias_filler {
      type: "constant"
      value: 0.001
    }
  }
}
layer {
  name: "st/final_ip/bn"
  type: "BN"
  bottom: "st/final_ip"
  top: "st/final_ip/bn"
  param {
    lr_mult: 0.0001
    decay_mult: 0.0
  }
  param {
    lr_mult: 0.0001
    decay_mult: 0.0
  }
  bn_param {
    scale_filler {
      type: "constant"
      value: 1.0
    }
    shift_filler {
      type: "constant"
      value: 0.0
    }
  }
}
layer {
  name: "st/final_ip/relu"
  type: "ReLU"
  bottom: "st/final_ip/bn"
  top: "st/final_ip/bn"
}
layer {
  name: "st/theta_1"
  type: "InnerProduct"
  bottom: "st/final_ip/bn"
  top: "st/theta_1/pre1"
  param {
    lr_mult: 0.0001
  }
  param {
    lr_mult: 0.0001
  }
  inner_product_param {
    num_output: 2
    weight_filler {
      type: "gaussian"
      std: 0.001
    }
    bias_filler {
      type: "constant"
    }
  }
}
layer {
  name: "st/theta_1/final"
  type: "PowerFile"
  bottom: "st/theta_1/pre1"
  top: "st/theta_1"
  power_file_param {
    shift_file: "models/googlenet-bn-cub-st/crop_init_1.txt"
  }
}
layer {
  name: "st_1"
  type: "SpatialTransformer"
  bottom: "data"
  bottom: "st/theta_1"
  top: "inc1/data"
  st_param {
    to_compute_dU: false
    theta_1_1: 0.5
    theta_1_2: 0.0
    theta_2_1: 0.0
    theta_2_2: 0.5
  }
}
layer {
  name: "st/theta_2"
  type: "InnerProduct"
  bottom: "st/final_ip/bn"
  top: "st/theta_2/pre1"
  param {
    lr_mult: 0.0001
  }
  param {
    lr_mult: 0.0001
  }
  inner_product_param {
    num_output: 2
    weight_filler {
      type: "gaussian"
      std: 0.001
    }
    bias_filler {
      type: "constant"
    }
  }
}
layer {
  name: "st/theta_2/final"
  type: "PowerFile"
  bottom: "st/theta_2/pre1"
  top: "st/theta_2"
  power_file_param {
    shift_file: "models/googlenet-bn-cub-st/crop_init_2.txt"
  }
}
layer {
  name: "st_2"
  type: "SpatialTransformer"
  bottom: "data"
  bottom: "st/theta_2"
  top: "inc2/data"
  st_param {
    to_compute_dU: false
    theta_1_1: 0.5
    theta_1_2: 0.0
    theta_2_1: 0.0
    theta_2_2: 0.5
  }
}
layer {
  name: "inc1/conv1/7x7_s2"
  type: "Convolution"
  bottom: "inc1/data"
  top: "inc1/conv1/7x7_s2"
  param {
    lr_mult: 1.0
    decay_mult: 1.0
  }
  convolution_param {
    num_output: 64
    bias_term: false
    pad: 3
    kernel_size: 7
    stride: 2
    weight_filler {
      type: "xavier"
    }
  }
}
layer {
  name: "inc1/conv1/7x7_s2/bn"
  type: "BN"
  bottom: "inc1/conv1/7x7_s2"
  top: "inc1/conv1/7x7_s2/bn"
  param {
    lr_mult: 1.0
    decay_mult: 0.0
  }
  param {
    lr_mult: 1.0
    decay_mult: 0.0
  }
  bn_param {
    scale_filler {
      type: "constant"
      value: 1.0
    }
    shift_filler {
      type: "constant"
      value: 0.0
    }
  }
}
layer {
  name: "inc1/conv1/relu_7x7"
  type: "ReLU"
  bottom: "inc1/conv1/7x7_s2/bn"
  top: "inc1/conv1/7x7_s2/bn"
}
layer {
  name: "inc1/pool1/3x3_s2"
  type: "Pooling"
  bottom: "inc1/conv1/7x7_s2/bn"
  top: "inc1/pool1/3x3_s2"
  pooling_param {
    pool: MAX
    kernel_size: 3
    stride: 2
  }
}
layer {
  name: "inc1/conv2/3x3_reduce"
  type: "Convolution"
  bottom: "inc1/pool1/3x3_s2"
  top: "inc1/conv2/3x3_reduce"
  param {
    lr_mult: 1.0
    decay_mult: 1.0
  }
  convolution_param {
    num_output: 64
    bias_term: false
    kernel_size: 1
    weight_filler {
      type: "xavier"
    }
  }
}
layer {
  name: "inc1/conv2/3x3_reduce/bn"
  type: "BN"
  bottom: "inc1/conv2/3x3_reduce"
  top: "inc1/conv2/3x3_reduce/bn"
  param {
    lr_mult: 1.0
    decay_mult: 0.0
  }
  param {
    lr_mult: 1.0
    decay_mult: 0.0
  }
  bn_param {
    scale_filler {
      type: "constant"
      value: 1.0
    }
    shift_filler {
      type: "constant"
      value: 0.0
    }
  }
}
layer {
  name: "inc1/conv2/relu_3x3_reduce"
  type: "ReLU"
  bottom: "inc1/conv2/3x3_reduce/bn"
  top: "inc1/conv2/3x3_reduce/bn"
}
layer {
  name: "inc1/conv2/3x3"
  type: "Convolution"
  bottom: "inc1/conv2/3x3_reduce/bn"
  top: "inc1/conv2/3x3"
  param {
    lr_mult: 1.0
    decay_mult: 1.0
  }
  convolution_param {
    num_output: 192
    bias_term: false
    pad: 1
    kernel_size: 3
    weight_filler {
      type: "xavier"
    }
  }
}
layer {
  name: "inc1/conv2/3x3/bn"
  type: "BN"
  bottom: "inc1/conv2/3x3"
  top: "inc1/conv2/3x3/bn"
  param {
    lr_mult: 1.0
    decay_mult: 0.0
  }
  param {
    lr_mult: 1.0
    decay_mult: 0.0
  }
  bn_param {
    scale_filler {
      type: "constant"
      value: 1.0
    }
    shift_filler {
      type: "constant"
      value: 0.0
    }
  }
}
layer {
  name: "inc1/conv2/relu_3x3"
  type: "ReLU"
  bottom: "inc1/conv2/3x3/bn"
  top: "inc1/conv2/3x3/bn"
}
layer {
  name: "inc1/pool2/3x3_s2"
  type: "Pooling"
  bottom: "inc1/conv2/3x3/bn"
  top: "inc1/pool2/3x3_s2"
  pooling_param {
    pool: MAX
    kernel_size: 3
    stride: 2
  }
}
layer {
  name: "inc1/inception_3a/1x1"
  type: "Convolution"
  bottom: "inc1/pool2/3x3_s2"
  top: "inc1/inception_3a/1x1"
  param {
    lr_mult: 1.0
    decay_mult: 1.0
  }
  convolution_param {
    num_output: 64
    bias_term: false
    kernel_size: 1
    weight_filler {
      type: "xavier"
    }
  }
}
layer {
  name: "inc1/inception_3a/1x1/bn"
  type: "BN"
  bottom: "inc1/inception_3a/1x1"
  top: "inc1/inception_3a/1x1/bn"
  param {
    lr_mult: 1.0
    decay_mult: 0.0
  }
  param {
    lr_mult: 1.0
    decay_mult: 0.0
  }
  bn_param {
    scale_filler {
      type: "constant"
      value: 1.0
    }
    shift_filler {
      type: "constant"
      value: 0.0
    }
  }
}
layer {
  name: "inc1/inception_3a/relu_1x1"
  type: "ReLU"
  bottom: "inc1/inception_3a/1x1/bn"
  top: "inc1/inception_3a/1x1/bn"
}
layer {
  name: "inc1/inception_3a/3x3_reduce"
  type: "Convolution"
  bottom: "inc1/pool2/3x3_s2"
  top: "inc1/inception_3a/3x3_reduce"
  param {
    lr_mult: 1.0
    decay_mult: 1.0
  }
  convolution_param {
    num_output: 64
    bias_term: false
    kernel_size: 1
    weight_filler {
      type: "xavier"
    }
  }
}
layer {
  name: "inc1/inception_3a/3x3_reduce/bn"
  type: "BN"
  bottom: "inc1/inception_3a/3x3_reduce"
  top: "inc1/inception_3a/3x3_reduce/bn"
  param {
    lr_mult: 1.0
    decay_mult: 0.0
  }
  param {
    lr_mult: 1.0
    decay_mult: 0.0
  }
  bn_param {
    scale_filler {
      type: "constant"
      value: 1.0
    }
    shift_filler {
      type: "constant"
      value: 0.0
    }
  }
}
layer {
  name: "inc1/inception_3a/relu_3x3_reduce"
  type: "ReLU"
  bottom: "inc1/inception_3a/3x3_reduce/bn"
  top: "inc1/inception_3a/3x3_reduce/bn"
}
layer {
  name: "inc1/inception_3a/3x3"
  type: "Convolution"
  bottom: "inc1/inception_3a/3x3_reduce/bn"
  top: "inc1/inception_3a/3x3"
  param {
    lr_mult: 1.0
    decay_mult: 1.0
  }
  convolution_param {
    num_output: 64
    bias_term: false
    pad: 1
    kernel_size: 3
    weight_filler {
      type: "xavier"
    }
  }
}
layer {
  name: "inc1/inception_3a/3x3/bn"
  type: "BN"
  bottom: "inc1/inception_3a/3x3"
  top: "inc1/inception_3a/3x3/bn"
  param {
    lr_mult: 1.0
    decay_mult: 0.0
  }
  param {
    lr_mult: 1.0
    decay_mult: 0.0
  }
  bn_param {
    scale_filler {
      type: "constant"
      value: 1.0
    }
    shift_filler {
      type: "constant"
      value: 0.0
    }
  }
}
layer {
  name: "inc1/inception_3a/relu_3x3"
  type: "ReLU"
  bottom: "inc1/inception_3a/3x3/bn"
  top: "inc1/inception_3a/3x3/bn"
}
layer {
  name: "inc1/inception_3a/double3x3_reduce"
  type: "Convolution"
  bottom: "inc1/pool2/3x3_s2"
  top: "inc1/inception_3a/double3x3_reduce"
  param {
    lr_mult: 1.0
    decay_mult: 1.0
  }
  convolution_param {
    num_output: 64
    bias_term: false
    kernel_size: 1
    weight_filler {
      type: "xavier"
    }
  }
}
layer {
  name: "inc1/inception_3a/double3x3_reduce/bn"
  type: "BN"
  bottom: "inc1/inception_3a/double3x3_reduce"
  top: "inc1/inception_3a/double3x3_reduce/bn"
  param {
    lr_mult: 1.0
    decay_mult: 0.0
  }
  param {
    lr_mult: 1.0
    decay_mult: 0.0
  }
  bn_param {
    scale_filler {
      type: "constant"
      value: 1.0
    }
    shift_filler {
      type: "constant"
      value: 0.0
    }
  }
}
layer {
  name: "inc1/inception_3a/relu_double3x3_reduce"
  type: "ReLU"
  bottom: "inc1/inception_3a/double3x3_reduce/bn"
  top: "inc1/inception_3a/double3x3_reduce/bn"
}
layer {
  name: "inc1/inception_3a/double3x3a"
  type: "Convolution"
  bottom: "inc1/inception_3a/double3x3_reduce/bn"
  top: "inc1/inception_3a/double3x3a"
  param {
    lr_mult: 1.0
    decay_mult: 1.0
  }
  convolution_param {
    num_output: 96
    bias_term: false
    pad: 1
    kernel_size: 3
    weight_filler {
      type: "xavier"
    }
  }
}
layer {
  name: "inc1/inception_3a/double3x3a/bn"
  type: "BN"
  bottom: "inc1/inception_3a/double3x3a"
  top: "inc1/inception_3a/double3x3a/bn"
  param {
    lr_mult: 1.0
    decay_mult: 0.0
  }
  param {
    lr_mult: 1.0
    decay_mult: 0.0
  }
  bn_param {
    scale_filler {
      type: "constant"
      value: 1.0
    }
    shift_filler {
      type: "constant"
      value: 0.0
    }
  }
}
layer {
  name: "inc1/inception_3a/relu_double3x3a"
  type: "ReLU"
  bottom: "inc1/inception_3a/double3x3a/bn"
  top: "inc1/inception_3a/double3x3a/bn"
}
layer {
  name: "inc1/inception_3a/double3x3b"
  type: "Convolution"
  bottom: "inc1/inception_3a/double3x3a/bn"
  top: "inc1/inception_3a/double3x3b"
  param {
    lr_mult: 1.0
    decay_mult: 1.0
  }
  convolution_param {
    num_output: 96
    bias_term: false
    pad: 1
    kernel_size: 3
    weight_filler {
      type: "xavier"
    }
  }
}
layer {
  name: "inc1/inception_3a/double3x3b/bn"
  type: "BN"
  bottom: "inc1/inception_3a/double3x3b"
  top: "inc1/inception_3a/double3x3b/bn"
  param {
    lr_mult: 1.0
    decay_mult: 0.0
  }
  param {
    lr_mult: 1.0
    decay_mult: 0.0
  }
  bn_param {
    scale_filler {
      type: "constant"
      value: 1.0
    }
    shift_filler {
      type: "constant"
      value: 0.0
    }
  }
}
layer {
  name: "inc1/inception_3a/relu_double3x3b"
  type: "ReLU"
  bottom: "inc1/inception_3a/double3x3b/bn"
  top: "inc1/inception_3a/double3x3b/bn"
}
layer {
  name: "inc1/inception_3a/pool"
  type: "Pooling"
  bottom: "inc1/pool2/3x3_s2"
  top: "inc1/inception_3a/pool"
  pooling_param {
    pool: AVE
    kernel_size: 3
    stride: 1
    pad: 1
  }
}
layer {
  name: "inc1/inception_3a/pool_proj"
  type: "Convolution"
  bottom: "inc1/inception_3a/pool"
  top: "inc1/inception_3a/pool_proj"
  param {
    lr_mult: 1.0
    decay_mult: 1.0
  }
  convolution_param {
    num_output: 32
    bias_term: false
    kernel_size: 1
    weight_filler {
      type: "xavier"
    }
  }
}
layer {
  name: "inc1/inception_3a/pool_proj/bn"
  type: "BN"
  bottom: "inc1/inception_3a/pool_proj"
  top: "inc1/inception_3a/pool_proj/bn"
  param {
    lr_mult: 1.0
    decay_mult: 0.0
  }
  param {
    lr_mult: 1.0
    decay_mult: 0.0
  }
  bn_param {
    scale_filler {
      type: "constant"
      value: 1.0
    }
    shift_filler {
      type: "constant"
      value: 0.0
    }
  }
}
layer {
  name: "inc1/inception_3a/relu_pool_proj"
  type: "ReLU"
  bottom: "inc1/inception_3a/pool_proj/bn"
  top: "inc1/inception_3a/pool_proj/bn"
}
layer {
  name: "inc1/inception_3a/output"
  type: "Concat"
  bottom: "inc1/inception_3a/1x1/bn"
  bottom: "inc1/inception_3a/3x3/bn"
  bottom: "inc1/inception_3a/double3x3b/bn"
  bottom: "inc1/inception_3a/pool_proj/bn"
  top: "inc1/inception_3a/output"
}
layer {
  name: "inc1/inception_3b/1x1"
  type: "Convolution"
  bottom: "inc1/inception_3a/output"
  top: "inc1/inception_3b/1x1"
  param {
    lr_mult: 1.0
    decay_mult: 1.0
  }
  convolution_param {
    num_output: 64
    bias_term: false
    kernel_size: 1
    weight_filler {
      type: "xavier"
    }
  }
}
layer {
  name: "inc1/inception_3b/1x1/bn"
  type: "BN"
  bottom: "inc1/inception_3b/1x1"
  top: "inc1/inception_3b/1x1/bn"
  param {
    lr_mult: 1.0
    decay_mult: 0.0
  }
  param {
    lr_mult: 1.0
    decay_mult: 0.0
  }
  bn_param {
    scale_filler {
      type: "constant"
      value: 1.0
    }
    shift_filler {
      type: "constant"
      value: 0.0
    }
  }
}
layer {
  name: "inc1/inception_3b/relu_1x1"
  type: "ReLU"
  bottom: "inc1/inception_3b/1x1/bn"
  top: "inc1/inception_3b/1x1/bn"
}
layer {
  name: "inc1/inception_3b/3x3_reduce"
  type: "Convolution"
  bottom: "inc1/inception_3a/output"
  top: "inc1/inception_3b/3x3_reduce"
  param {
    lr_mult: 1.0
    decay_mult: 1.0
  }
  convolution_param {
    num_output: 64
    bias_term: false
    kernel_size: 1
    weight_filler {
      type: "xavier"
    }
  }
}
layer {
  name: "inc1/inception_3b/3x3_reduce/bn"
  type: "BN"
  bottom: "inc1/inception_3b/3x3_reduce"
  top: "inc1/inception_3b/3x3_reduce/bn"
  param {
    lr_mult: 1.0
    decay_mult: 0.0
  }
  param {
    lr_mult: 1.0
    decay_mult: 0.0
  }
  bn_param {
    scale_filler {
      type: "constant"
      value: 1.0
    }
    shift_filler {
      type: "constant"
      value: 0.0
    }
  }
}
layer {
  name: "inc1/inception_3b/relu_3x3_reduce"
  type: "ReLU"
  bottom: "inc1/inception_3b/3x3_reduce/bn"
  top: "inc1/inception_3b/3x3_reduce/bn"
}
layer {
  name: "inc1/inception_3b/3x3"
  type: "Convolution"
  bottom: "inc1/inception_3b/3x3_reduce/bn"
  top: "inc1/inception_3b/3x3"
  param {
    lr_mult: 1.0
    decay_mult: 1.0
  }
  convolution_param {
    num_output: 96
    bias_term: false
    pad: 1
    kernel_size: 3
    weight_filler {
      type: "xavier"
    }
  }
}
layer {
  name: "inc1/inception_3b/3x3/bn"
  type: "BN"
  bottom: "inc1/inception_3b/3x3"
  top: "inc1/inception_3b/3x3/bn"
  param {
    lr_mult: 1.0
    decay_mult: 0.0
  }
  param {
    lr_mult: 1.0
    decay_mult: 0.0
  }
  bn_param {
    scale_filler {
      type: "constant"
      value: 1.0
    }
    shift_filler {
      type: "constant"
      value: 0.0
    }
  }
}
layer {
  name: "inc1/inception_3b/relu_3x3"
  type: "ReLU"
  bottom: "inc1/inception_3b/3x3/bn"
  top: "inc1/inception_3b/3x3/bn"
}
layer {
  name: "inc1/inception_3b/double3x3_reduce"
  type: "Convolution"
  bottom: "inc1/inception_3a/output"
  top: "inc1/inception_3b/double3x3_reduce"
  param {
    lr_mult: 1.0
    decay_mult: 1.0
  }
  convolution_param {
    num_output: 64
    bias_term: false
    kernel_size: 1
    weight_filler {
      type: "xavier"
    }
  }
}
layer {
  name: "inc1/inception_3b/double3x3_reduce/bn"
  type: "BN"
  bottom: "inc1/inception_3b/double3x3_reduce"
  top: "inc1/inception_3b/double3x3_reduce/bn"
  param {
    lr_mult: 1.0
    decay_mult: 0.0
  }
  param {
    lr_mult: 1.0
    decay_mult: 0.0
  }
  bn_param {
    scale_filler {
      type: "constant"
      value: 1.0
    }
    shift_filler {
      type: "constant"
      value: 0.0
    }
  }
}
layer {
  name: "inc1/inception_3b/relu_double3x3_reduce"
  type: "ReLU"
  bottom: "inc1/inception_3b/double3x3_reduce/bn"
  top: "inc1/inception_3b/double3x3_reduce/bn"
}
layer {
  name: "inc1/inception_3b/double3x3a"
  type: "Convolution"
  bottom: "inc1/inception_3b/double3x3_reduce/bn"
  top: "inc1/inception_3b/double3x3a"
  param {
    lr_mult: 1.0
    decay_mult: 1.0
  }
  convolution_param {
    num_output: 96
    bias_term: false
    pad: 1
    kernel_size: 3
    weight_filler {
      type: "xavier"
    }
  }
}
layer {
  name: "inc1/inception_3b/double3x3a/bn"
  type: "BN"
  bottom: "inc1/inception_3b/double3x3a"
  top: "inc1/inception_3b/double3x3a/bn"
  param {
    lr_mult: 1.0
    decay_mult: 0.0
  }
  param {
    lr_mult: 1.0
    decay_mult: 0.0
  }
  bn_param {
    scale_filler {
      type: "constant"
      value: 1.0
    }
    shift_filler {
      type: "constant"
      value: 0.0
    }
  }
}
layer {
  name: "inc1/inception_3b/relu_double3x3a"
  type: "ReLU"
  bottom: "inc1/inception_3b/double3x3a/bn"
  top: "inc1/inception_3b/double3x3a/bn"
}
layer {
  name: "inc1/inception_3b/double3x3b"
  type: "Convolution"
  bottom: "inc1/inception_3b/double3x3a/bn"
  top: "inc1/inception_3b/double3x3b"
  param {
    lr_mult: 1.0
    decay_mult: 1.0
  }
  convolution_param {
    num_output: 96
    bias_term: false
    pad: 1
    kernel_size: 3
    weight_filler {
      type: "xavier"
    }
  }
}
layer {
  name: "inc1/inception_3b/double3x3b/bn"
  type: "BN"
  bottom: "inc1/inception_3b/double3x3b"
  top: "inc1/inception_3b/double3x3b/bn"
  param {
    lr_mult: 1.0
    decay_mult: 0.0
  }
  param {
    lr_mult: 1.0
    decay_mult: 0.0
  }
  bn_param {
    scale_filler {
      type: "constant"
      value: 1.0
    }
    shift_filler {
      type: "constant"
      value: 0.0
    }
  }
}
layer {
  name: "inc1/inception_3b/relu_double3x3b"
  type: "ReLU"
  bottom: "inc1/inception_3b/double3x3b/bn"
  top: "inc1/inception_3b/double3x3b/bn"
}
layer {
  name: "inc1/inception_3b/pool"
  type: "Pooling"
  bottom: "inc1/inception_3a/output"
  top: "inc1/inception_3b/pool"
  pooling_param {
    pool: AVE
    kernel_size: 3
    stride: 1
    pad: 1
  }
}
layer {
  name: "inc1/inception_3b/pool_proj"
  type: "Convolution"
  bottom: "inc1/inception_3b/pool"
  top: "inc1/inception_3b/pool_proj"
  param {
    lr_mult: 1.0
    decay_mult: 1.0
  }
  convolution_param {
    num_output: 64
    bias_term: false
    kernel_size: 1
    weight_filler {
      type: "xavier"
    }
  }
}
layer {
  name: "inc1/inception_3b/pool_proj/bn"
  type: "BN"
  bottom: "inc1/inception_3b/pool_proj"
  top: "inc1/inception_3b/pool_proj/bn"
  param {
    lr_mult: 1.0
    decay_mult: 0.0
  }
  param {
    lr_mult: 1.0
    decay_mult: 0.0
  }
  bn_param {
    scale_filler {
      type: "constant"
      value: 1.0
    }
    shift_filler {
      type: "constant"
      value: 0.0
    }
  }
}
layer {
  name: "inc1/inception_3b/relu_pool_proj"
  type: "ReLU"
  bottom: "inc1/inception_3b/pool_proj/bn"
  top: "inc1/inception_3b/pool_proj/bn"
}
layer {
  name: "inc1/inception_3b/output"
  type: "Concat"
  bottom: "inc1/inception_3b/1x1/bn"
  bottom: "inc1/inception_3b/3x3/bn"
  bottom: "inc1/inception_3b/double3x3b/bn"
  bottom: "inc1/inception_3b/pool_proj/bn"
  top: "inc1/inception_3b/output"
}
layer {
  name: "inc1/inception_3c/3x3_reduce"
  type: "Convolution"
  bottom: "inc1/inception_3b/output"
  top: "inc1/inception_3c/3x3_reduce"
  param {
    lr_mult: 1.0
    decay_mult: 1.0
  }
  convolution_param {
    num_output: 128
    bias_term: false
    kernel_size: 1
    weight_filler {
      type: "xavier"
    }
  }
}
layer {
  name: "inc1/inception_3c/3x3_reduce/bn"
  type: "BN"
  bottom: "inc1/inception_3c/3x3_reduce"
  top: "inc1/inception_3c/3x3_reduce/bn"
  param {
    lr_mult: 1.0
    decay_mult: 0.0
  }
  param {
    lr_mult: 1.0
    decay_mult: 0.0
  }
  bn_param {
    scale_filler {
      type: "constant"
      value: 1.0
    }
    shift_filler {
      type: "constant"
      value: 0.0
    }
  }
}
layer {
  name: "inc1/inception_3c/relu_3x3_reduce"
  type: "ReLU"
  bottom: "inc1/inception_3c/3x3_reduce/bn"
  top: "inc1/inception_3c/3x3_reduce/bn"
}
layer {
  name: "inc1/inception_3c/3x3"
  type: "Convolution"
  bottom: "inc1/inception_3c/3x3_reduce/bn"
  top: "inc1/inception_3c/3x3"
  param {
    lr_mult: 1.0
    decay_mult: 1.0
  }
  convolution_param {
    num_output: 160
    bias_term: false
    pad: 1
    kernel_size: 3
    stride: 2
    weight_filler {
      type: "xavier"
    }
  }
}
layer {
  name: "inc1/inception_3c/3x3/bn"
  type: "BN"
  bottom: "inc1/inception_3c/3x3"
  top: "inc1/inception_3c/3x3/bn"
  param {
    lr_mult: 1.0
    decay_mult: 0.0
  }
  param {
    lr_mult: 1.0
    decay_mult: 0.0
  }
  bn_param {
    scale_filler {
      type: "constant"
      value: 1.0
    }
    shift_filler {
      type: "constant"
      value: 0.0
    }
  }
}
layer {
  name: "inc1/inception_3c/relu_3x3"
  type: "ReLU"
  bottom: "inc1/inception_3c/3x3/bn"
  top: "inc1/inception_3c/3x3/bn"
}
layer {
  name: "inc1/inception_3c/double3x3_reduce"
  type: "Convolution"
  bottom: "inc1/inception_3b/output"
  top: "inc1/inception_3c/double3x3_reduce"
  param {
    lr_mult: 1.0
    decay_mult: 1.0
  }
  convolution_param {
    num_output: 64
    bias_term: false
    kernel_size: 1
    weight_filler {
      type: "xavier"
    }
  }
}
layer {
  name: "inc1/inception_3c/double3x3_reduce/bn"
  type: "BN"
  bottom: "inc1/inception_3c/double3x3_reduce"
  top: "inc1/inception_3c/double3x3_reduce/bn"
  param {
    lr_mult: 1.0
    decay_mult: 0.0
  }
  param {
    lr_mult: 1.0
    decay_mult: 0.0
  }
  bn_param {
    scale_filler {
      type: "constant"
      value: 1.0
    }
    shift_filler {
      type: "constant"
      value: 0.0
    }
  }
}
layer {
  name: "inc1/inception_3c/relu_double3x3_reduce"
  type: "ReLU"
  bottom: "inc1/inception_3c/double3x3_reduce/bn"
  top: "inc1/inception_3c/double3x3_reduce/bn"
}
layer {
  name: "inc1/inception_3c/double3x3a"
  type: "Convolution"
  bottom: "inc1/inception_3c/double3x3_reduce/bn"
  top: "inc1/inception_3c/double3x3a"
  param {
    lr_mult: 1.0
    decay_mult: 1.0
  }
  convolution_param {
    num_output: 96
    bias_term: false
    pad: 1
    kernel_size: 3
    weight_filler {
      type: "xavier"
    }
  }
}
layer {
  name: "inc1/inception_3c/double3x3a/bn"
  type: "BN"
  bottom: "inc1/inception_3c/double3x3a"
  top: "inc1/inception_3c/double3x3a/bn"
  param {
    lr_mult: 1.0
    decay_mult: 0.0
  }
  param {
    lr_mult: 1.0
    decay_mult: 0.0
  }
  bn_param {
    scale_filler {
      type: "constant"
      value: 1.0
    }
    shift_filler {
      type: "constant"
      value: 0.0
    }
  }
}
layer {
  name: "inc1/inception_3c/relu_double3x3a"
  type: "ReLU"
  bottom: "inc1/inception_3c/double3x3a/bn"
  top: "inc1/inception_3c/double3x3a/bn"
}
layer {
  name: "inc1/inception_3c/double3x3b"
  type: "Convolution"
  bottom: "inc1/inception_3c/double3x3a/bn"
  top: "inc1/inception_3c/double3x3b"
  param {
    lr_mult: 1.0
    decay_mult: 1.0
  }
  convolution_param {
    num_output: 96
    bias_term: false
    pad: 1
    kernel_size: 3
    stride: 2
    weight_filler {
      type: "xavier"
    }
  }
}
layer {
  name: "inc1/inception_3c/double3x3b/bn"
  type: "BN"
  bottom: "inc1/inception_3c/double3x3b"
  top: "inc1/inception_3c/double3x3b/bn"
  param {
    lr_mult: 1.0
    decay_mult: 0.0
  }
  param {
    lr_mult: 1.0
    decay_mult: 0.0
  }
  bn_param {
    scale_filler {
      type: "constant"
      value: 1.0
    }
    shift_filler {
      type: "constant"
      value: 0.0
    }
  }
}
layer {
  name: "inc1/inception_3c/relu_double3x3b"
  type: "ReLU"
  bottom: "inc1/inception_3c/double3x3b/bn"
  top: "inc1/inception_3c/double3x3b/bn"
}
layer {
  name: "inc1/inception_3c/pool/3x3_s2"
  type: "Pooling"
  bottom: "inc1/inception_3b/output"
  top: "inc1/inception_3c/pool/3x3_s2"
  pooling_param {
    pool: MAX
    kernel_size: 3
    stride: 2
  }
}
layer {
  name: "inc1/inception_3c/output"
  type: "Concat"
  bottom: "inc1/inception_3c/3x3/bn"
  bottom: "inc1/inception_3c/double3x3b/bn"
  bottom: "inc1/inception_3c/pool/3x3_s2"
  top: "inc1/inception_3c/output"
}
layer {
  name: "inc1/inception_4a/1x1"
  type: "Convolution"
  bottom: "inc1/inception_3c/output"
  top: "inc1/inception_4a/1x1"
  param {
    lr_mult: 1.0
    decay_mult: 1.0
  }
  convolution_param {
    num_output: 224
    bias_term: false
    kernel_size: 1
    weight_filler {
      type: "xavier"
    }
  }
}
layer {
  name: "inc1/inception_4a/1x1/bn"
  type: "BN"
  bottom: "inc1/inception_4a/1x1"
  top: "inc1/inception_4a/1x1/bn"
  param {
    lr_mult: 1.0
    decay_mult: 0.0
  }
  param {
    lr_mult: 1.0
    decay_mult: 0.0
  }
  bn_param {
    scale_filler {
      type: "constant"
      value: 1.0
    }
    shift_filler {
      type: "constant"
      value: 0.0
    }
  }
}
layer {
  name: "inc1/inception_4a/relu_1x1"
  type: "ReLU"
  bottom: "inc1/inception_4a/1x1/bn"
  top: "inc1/inception_4a/1x1/bn"
}
layer {
  name: "inc1/inception_4a/3x3_reduce"
  type: "Convolution"
  bottom: "inc1/inception_3c/output"
  top: "inc1/inception_4a/3x3_reduce"
  param {
    lr_mult: 1.0
    decay_mult: 1.0
  }
  convolution_param {
    num_output: 64
    bias_term: false
    kernel_size: 1
    weight_filler {
      type: "xavier"
    }
  }
}
layer {
  name: "inc1/inception_4a/3x3_reduce/bn"
  type: "BN"
  bottom: "inc1/inception_4a/3x3_reduce"
  top: "inc1/inception_4a/3x3_reduce/bn"
  param {
    lr_mult: 1.0
    decay_mult: 0.0
  }
  param {
    lr_mult: 1.0
    decay_mult: 0.0
  }
  bn_param {
    scale_filler {
      type: "constant"
      value: 1.0
    }
    shift_filler {
      type: "constant"
      value: 0.0
    }
  }
}
layer {
  name: "inc1/inception_4a/relu_3x3_reduce"
  type: "ReLU"
  bottom: "inc1/inception_4a/3x3_reduce/bn"
  top: "inc1/inception_4a/3x3_reduce/bn"
}
layer {
  name: "inc1/inception_4a/3x3"
  type: "Convolution"
  bottom: "inc1/inception_4a/3x3_reduce/bn"
  top: "inc1/inception_4a/3x3"
  param {
    lr_mult: 1.0
    decay_mult: 1.0
  }
  convolution_param {
    num_output: 96
    bias_term: false
    pad: 1
    kernel_size: 3
    weight_filler {
      type: "xavier"
    }
  }
}
layer {
  name: "inc1/inception_4a/3x3/bn"
  type: "BN"
  bottom: "inc1/inception_4a/3x3"
  top: "inc1/inception_4a/3x3/bn"
  param {
    lr_mult: 1.0
    decay_mult: 0.0
  }
  param {
    lr_mult: 1.0
    decay_mult: 0.0
  }
  bn_param {
    scale_filler {
      type: "constant"
      value: 1.0
    }
    shift_filler {
      type: "constant"
      value: 0.0
    }
  }
}
layer {
  name: "inc1/inception_4a/relu_3x3"
  type: "ReLU"
  bottom: "inc1/inception_4a/3x3/bn"
  top: "inc1/inception_4a/3x3/bn"
}
layer {
  name: "inc1/inception_4a/double3x3_reduce"
  type: "Convolution"
  bottom: "inc1/inception_3c/output"
  top: "inc1/inception_4a/double3x3_reduce"
  param {
    lr_mult: 1.0
    decay_mult: 1.0
  }
  convolution_param {
    num_output: 96
    bias_term: false
    kernel_size: 1
    weight_filler {
      type: "xavier"
    }
  }
}
layer {
  name: "inc1/inception_4a/double3x3_reduce/bn"
  type: "BN"
  bottom: "inc1/inception_4a/double3x3_reduce"
  top: "inc1/inception_4a/double3x3_reduce/bn"
  param {
    lr_mult: 1.0
    decay_mult: 0.0
  }
  param {
    lr_mult: 1.0
    decay_mult: 0.0
  }
  bn_param {
    scale_filler {
      type: "constant"
      value: 1.0
    }
    shift_filler {
      type: "constant"
      value: 0.0
    }
  }
}
layer {
  name: "inc1/inception_4a/relu_double3x3_reduce"
  type: "ReLU"
  bottom: "inc1/inception_4a/double3x3_reduce/bn"
  top: "inc1/inception_4a/double3x3_reduce/bn"
}
layer {
  name: "inc1/inception_4a/double3x3a"
  type: "Convolution"
  bottom: "inc1/inception_4a/double3x3_reduce/bn"
  top: "inc1/inception_4a/double3x3a"
  param {
    lr_mult: 1.0
    decay_mult: 1.0
  }
  convolution_param {
    num_output: 128
    bias_term: false
    pad: 1
    kernel_size: 3
    weight_filler {
      type: "xavier"
    }
  }
}
layer {
  name: "inc1/inception_4a/double3x3a/bn"
  type: "BN"
  bottom: "inc1/inception_4a/double3x3a"
  top: "inc1/inception_4a/double3x3a/bn"
  param {
    lr_mult: 1.0
    decay_mult: 0.0
  }
  param {
    lr_mult: 1.0
    decay_mult: 0.0
  }
  bn_param {
    scale_filler {
      type: "constant"
      value: 1.0
    }
    shift_filler {
      type: "constant"
      value: 0.0
    }
  }
}
layer {
  name: "inc1/inception_4a/relu_double3x3a"
  type: "ReLU"
  bottom: "inc1/inception_4a/double3x3a/bn"
  top: "inc1/inception_4a/double3x3a/bn"
}
layer {
  name: "inc1/inception_4a/double3x3b"
  type: "Convolution"
  bottom: "inc1/inception_4a/double3x3a/bn"
  top: "inc1/inception_4a/double3x3b"
  param {
    lr_mult: 1.0
    decay_mult: 1.0
  }
  convolution_param {
    num_output: 128
    bias_term: false
    pad: 1
    kernel_size: 3
    weight_filler {
      type: "xavier"
    }
  }
}
layer {
  name: "inc1/inception_4a/double3x3b/bn"
  type: "BN"
  bottom: "inc1/inception_4a/double3x3b"
  top: "inc1/inception_4a/double3x3b/bn"
  param {
    lr_mult: 1.0
    decay_mult: 0.0
  }
  param {
    lr_mult: 1.0
    decay_mult: 0.0
  }
  bn_param {
    scale_filler {
      type: "constant"
      value: 1.0
    }
    shift_filler {
      type: "constant"
      value: 0.0
    }
  }
}
layer {
  name: "inc1/inception_4a/relu_double3x3b"
  type: "ReLU"
  bottom: "inc1/inception_4a/double3x3b/bn"
  top: "inc1/inception_4a/double3x3b/bn"
}
layer {
  name: "inc1/inception_4a/pool"
  type: "Pooling"
  bottom: "inc1/inception_3c/output"
  top: "inc1/inception_4a/pool"
  pooling_param {
    pool: AVE
    kernel_size: 3
    stride: 1
    pad: 1
  }
}
layer {
  name: "inc1/inception_4a/pool_proj"
  type: "Convolution"
  bottom: "inc1/inception_4a/pool"
  top: "inc1/inception_4a/pool_proj"
  param {
    lr_mult: 1.0
    decay_mult: 1.0
  }
  convolution_param {
    num_output: 128
    bias_term: false
    kernel_size: 1
    weight_filler {
      type: "xavier"
    }
  }
}
layer {
  name: "inc1/inception_4a/pool_proj/bn"
  type: "BN"
  bottom: "inc1/inception_4a/pool_proj"
  top: "inc1/inception_4a/pool_proj/bn"
  param {
    lr_mult: 1.0
    decay_mult: 0.0
  }
  param {
    lr_mult: 1.0
    decay_mult: 0.0
  }
  bn_param {
    scale_filler {
      type: "constant"
      value: 1.0
    }
    shift_filler {
      type: "constant"
      value: 0.0
    }
  }
}
layer {
  name: "inc1/inception_4a/relu_pool_proj"
  type: "ReLU"
  bottom: "inc1/inception_4a/pool_proj/bn"
  top: "inc1/inception_4a/pool_proj/bn"
}
layer {
  name: "inc1/inception_4a/output"
  type: "Concat"
  bottom: "inc1/inception_4a/1x1/bn"
  bottom: "inc1/inception_4a/3x3/bn"
  bottom: "inc1/inception_4a/double3x3b/bn"
  bottom: "inc1/inception_4a/pool_proj/bn"
  top: "inc1/inception_4a/output"
}
layer {
  name: "inc1/inception_4b/1x1"
  type: "Convolution"
  bottom: "inc1/inception_4a/output"
  top: "inc1/inception_4b/1x1"
  param {
    lr_mult: 1.0
    decay_mult: 1.0
  }
  convolution_param {
    num_output: 192
    bias_term: false
    kernel_size: 1
    weight_filler {
      type: "xavier"
    }
  }
}
layer {
  name: "inc1/inception_4b/1x1/bn"
  type: "BN"
  bottom: "inc1/inception_4b/1x1"
  top: "inc1/inception_4b/1x1/bn"
  param {
    lr_mult: 1.0
    decay_mult: 0.0
  }
  param {
    lr_mult: 1.0
    decay_mult: 0.0
  }
  bn_param {
    scale_filler {
      type: "constant"
      value: 1.0
    }
    shift_filler {
      type: "constant"
      value: 0.0
    }
  }
}
layer {
  name: "inc1/inception_4b/relu_1x1"
  type: "ReLU"
  bottom: "inc1/inception_4b/1x1/bn"
  top: "inc1/inception_4b/1x1/bn"
}
layer {
  name: "inc1/inception_4b/3x3_reduce"
  type: "Convolution"
  bottom: "inc1/inception_4a/output"
  top: "inc1/inception_4b/3x3_reduce"
  param {
    lr_mult: 1.0
    decay_mult: 1.0
  }
  convolution_param {
    num_output: 96
    bias_term: false
    kernel_size: 1
    weight_filler {
      type: "xavier"
    }
  }
}
layer {
  name: "inc1/inception_4b/3x3_reduce/bn"
  type: "BN"
  bottom: "inc1/inception_4b/3x3_reduce"
  top: "inc1/inception_4b/3x3_reduce/bn"
  param {
    lr_mult: 1.0
    decay_mult: 0.0
  }
  param {
    lr_mult: 1.0
    decay_mult: 0.0
  }
  bn_param {
    scale_filler {
      type: "constant"
      value: 1.0
    }
    shift_filler {
      type: "constant"
      value: 0.0
    }
  }
}
layer {
  name: "inc1/inception_4b/relu_3x3_reduce"
  type: "ReLU"
  bottom: "inc1/inception_4b/3x3_reduce/bn"
  top: "inc1/inception_4b/3x3_reduce/bn"
}
layer {
  name: "inc1/inception_4b/3x3"
  type: "Convolution"
  bottom: "inc1/inception_4b/3x3_reduce/bn"
  top: "inc1/inception_4b/3x3"
  param {
    lr_mult: 1.0
    decay_mult: 1.0
  }
  convolution_param {
    num_output: 128
    bias_term: false
    pad: 1
    kernel_size: 3
    weight_filler {
      type: "xavier"
    }
  }
}
layer {
  name: "inc1/inception_4b/3x3/bn"
  type: "BN"
  bottom: "inc1/inception_4b/3x3"
  top: "inc1/inception_4b/3x3/bn"
  param {
    lr_mult: 1.0
    decay_mult: 0.0
  }
  param {
    lr_mult: 1.0
    decay_mult: 0.0
  }
  bn_param {
    scale_filler {
      type: "constant"
      value: 1.0
    }
    shift_filler {
      type: "constant"
      value: 0.0
    }
  }
}
layer {
  name: "inc1/inception_4b/relu_3x3"
  type: "ReLU"
  bottom: "inc1/inception_4b/3x3/bn"
  top: "inc1/inception_4b/3x3/bn"
}
layer {
  name: "inc1/inception_4b/double3x3_reduce"
  type: "Convolution"
  bottom: "inc1/inception_4a/output"
  top: "inc1/inception_4b/double3x3_reduce"
  param {
    lr_mult: 1.0
    decay_mult: 1.0
  }
  convolution_param {
    num_output: 96
    bias_term: false
    kernel_size: 1
    weight_filler {
      type: "xavier"
    }
  }
}
layer {
  name: "inc1/inception_4b/double3x3_reduce/bn"
  type: "BN"
  bottom: "inc1/inception_4b/double3x3_reduce"
  top: "inc1/inception_4b/double3x3_reduce/bn"
  param {
    lr_mult: 1.0
    decay_mult: 0.0
  }
  param {
    lr_mult: 1.0
    decay_mult: 0.0
  }
  bn_param {
    scale_filler {
      type: "constant"
      value: 1.0
    }
    shift_filler {
      type: "constant"
      value: 0.0
    }
  }
}
layer {
  name: "inc1/inception_4b/relu_double3x3_reduce"
  type: "ReLU"
  bottom: "inc1/inception_4b/double3x3_reduce/bn"
  top: "inc1/inception_4b/double3x3_reduce/bn"
}
layer {
  name: "inc1/inception_4b/double3x3a"
  type: "Convolution"
  bottom: "inc1/inception_4b/double3x3_reduce/bn"
  top: "inc1/inception_4b/double3x3a"
  param {
    lr_mult: 1.0
    decay_mult: 1.0
  }
  convolution_param {
    num_output: 128
    bias_term: false
    pad: 1
    kernel_size: 3
    weight_filler {
      type: "xavier"
    }
  }
}
layer {
  name: "inc1/inception_4b/double3x3a/bn"
  type: "BN"
  bottom: "inc1/inception_4b/double3x3a"
  top: "inc1/inception_4b/double3x3a/bn"
  param {
    lr_mult: 1.0
    decay_mult: 0.0
  }
  param {
    lr_mult: 1.0
    decay_mult: 0.0
  }
  bn_param {
    scale_filler {
      type: "constant"
      value: 1.0
    }
    shift_filler {
      type: "constant"
      value: 0.0
    }
  }
}
layer {
  name: "inc1/inception_4b/relu_double3x3a"
  type: "ReLU"
  bottom: "inc1/inception_4b/double3x3a/bn"
  top: "inc1/inception_4b/double3x3a/bn"
}
layer {
  name: "inc1/inception_4b/double3x3b"
  type: "Convolution"
  bottom: "inc1/inception_4b/double3x3a/bn"
  top: "inc1/inception_4b/double3x3b"
  param {
    lr_mult: 1.0
    decay_mult: 1.0
  }
  convolution_param {
    num_output: 128
    bias_term: false
    pad: 1
    kernel_size: 3
    weight_filler {
      type: "xavier"
    }
  }
}
layer {
  name: "inc1/inception_4b/double3x3b/bn"
  type: "BN"
  bottom: "inc1/inception_4b/double3x3b"
  top: "inc1/inception_4b/double3x3b/bn"
  param {
    lr_mult: 1.0
    decay_mult: 0.0
  }
  param {
    lr_mult: 1.0
    decay_mult: 0.0
  }
  bn_param {
    scale_filler {
      type: "constant"
      value: 1.0
    }
    shift_filler {
      type: "constant"
      value: 0.0
    }
  }
}
layer {
  name: "inc1/inception_4b/relu_double3x3b"
  type: "ReLU"
  bottom: "inc1/inception_4b/double3x3b/bn"
  top: "inc1/inception_4b/double3x3b/bn"
}
layer {
  name: "inc1/inception_4b/pool"
  type: "Pooling"
  bottom: "inc1/inception_4a/output"
  top: "inc1/inception_4b/pool"
  pooling_param {
    pool: AVE
    kernel_size: 3
    stride: 1
    pad: 1
  }
}
layer {
  name: "inc1/inception_4b/pool_proj"
  type: "Convolution"
  bottom: "inc1/inception_4b/pool"
  top: "inc1/inception_4b/pool_proj"
  param {
    lr_mult: 1.0
    decay_mult: 1.0
  }
  convolution_param {
    num_output: 128
    bias_term: false
    kernel_size: 1
    weight_filler {
      type: "xavier"
    }
  }
}
layer {
  name: "inc1/inception_4b/pool_proj/bn"
  type: "BN"
  bottom: "inc1/inception_4b/pool_proj"
  top: "inc1/inception_4b/pool_proj/bn"
  param {
    lr_mult: 1.0
    decay_mult: 0.0
  }
  param {
    lr_mult: 1.0
    decay_mult: 0.0
  }
  bn_param {
    scale_filler {
      type: "constant"
      value: 1.0
    }
    shift_filler {
      type: "constant"
      value: 0.0
    }
  }
}
layer {
  name: "inc1/inception_4b/relu_pool_proj"
  type: "ReLU"
  bottom: "inc1/inception_4b/pool_proj/bn"
  top: "inc1/inception_4b/pool_proj/bn"
}
layer {
  name: "inc1/inception_4b/output"
  type: "Concat"
  bottom: "inc1/inception_4b/1x1/bn"
  bottom: "inc1/inception_4b/3x3/bn"
  bottom: "inc1/inception_4b/double3x3b/bn"
  bottom: "inc1/inception_4b/pool_proj/bn"
  top: "inc1/inception_4b/output"
}
layer {
  name: "inc1/inception_4c/1x1"
  type: "Convolution"
  bottom: "inc1/inception_4b/output"
  top: "inc1/inception_4c/1x1"
  param {
    lr_mult: 1.0
    decay_mult: 1.0
  }
  convolution_param {
    num_output: 160
    bias_term: false
    kernel_size: 1
    weight_filler {
      type: "xavier"
    }
  }
}
layer {
  name: "inc1/inception_4c/1x1/bn"
  type: "BN"
  bottom: "inc1/inception_4c/1x1"
  top: "inc1/inception_4c/1x1/bn"
  param {
    lr_mult: 1.0
    decay_mult: 0.0
  }
  param {
    lr_mult: 1.0
    decay_mult: 0.0
  }
  bn_param {
    scale_filler {
      type: "constant"
      value: 1.0
    }
    shift_filler {
      type: "constant"
      value: 0.0
    }
  }
}
layer {
  name: "inc1/inception_4c/relu_1x1"
  type: "ReLU"
  bottom: "inc1/inception_4c/1x1/bn"
  top: "inc1/inception_4c/1x1/bn"
}
layer {
  name: "inc1/inception_4c/3x3_reduce"
  type: "Convolution"
  bottom: "inc1/inception_4b/output"
  top: "inc1/inception_4c/3x3_reduce"
  param {
    lr_mult: 1.0
    decay_mult: 1.0
  }
  convolution_param {
    num_output: 128
    bias_term: false
    kernel_size: 1
    weight_filler {
      type: "xavier"
    }
  }
}
layer {
  name: "inc1/inception_4c/3x3_reduce/bn"
  type: "BN"
  bottom: "inc1/inception_4c/3x3_reduce"
  top: "inc1/inception_4c/3x3_reduce/bn"
  param {
    lr_mult: 1.0
    decay_mult: 0.0
  }
  param {
    lr_mult: 1.0
    decay_mult: 0.0
  }
  bn_param {
    scale_filler {
      type: "constant"
      value: 1.0
    }
    shift_filler {
      type: "constant"
      value: 0.0
    }
  }
}
layer {
  name: "inc1/inception_4c/relu_3x3_reduce"
  type: "ReLU"
  bottom: "inc1/inception_4c/3x3_reduce/bn"
  top: "inc1/inception_4c/3x3_reduce/bn"
}
layer {
  name: "inc1/inception_4c/3x3"
  type: "Convolution"
  bottom: "inc1/inception_4c/3x3_reduce/bn"
  top: "inc1/inception_4c/3x3"
  param {
    lr_mult: 1.0
    decay_mult: 1.0
  }
  convolution_param {
    num_output: 160
    bias_term: false
    pad: 1
    kernel_size: 3
    weight_filler {
      type: "xavier"
    }
  }
}
layer {
  name: "inc1/inception_4c/3x3/bn"
  type: "BN"
  bottom: "inc1/inception_4c/3x3"
  top: "inc1/inception_4c/3x3/bn"
  param {
    lr_mult: 1.0
    decay_mult: 0.0
  }
  param {
    lr_mult: 1.0
    decay_mult: 0.0
  }
  bn_param {
    scale_filler {
      type: "constant"
      value: 1.0
    }
    shift_filler {
      type: "constant"
      value: 0.0
    }
  }
}
layer {
  name: "inc1/inception_4c/relu_3x3"
  type: "ReLU"
  bottom: "inc1/inception_4c/3x3/bn"
  top: "inc1/inception_4c/3x3/bn"
}
layer {
  name: "inc1/inception_4c/double3x3_reduce"
  type: "Convolution"
  bottom: "inc1/inception_4b/output"
  top: "inc1/inception_4c/double3x3_reduce"
  param {
    lr_mult: 1.0
    decay_mult: 1.0
  }
  convolution_param {
    num_output: 128
    bias_term: false
    kernel_size: 1
    weight_filler {
      type: "xavier"
    }
  }
}
layer {
  name: "inc1/inception_4c/double3x3_reduce/bn"
  type: "BN"
  bottom: "inc1/inception_4c/double3x3_reduce"
  top: "inc1/inception_4c/double3x3_reduce/bn"
  param {
    lr_mult: 1.0
    decay_mult: 0.0
  }
  param {
    lr_mult: 1.0
    decay_mult: 0.0
  }
  bn_param {
    scale_filler {
      type: "constant"
      value: 1.0
    }
    shift_filler {
      type: "constant"
      value: 0.0
    }
  }
}
layer {
  name: "inc1/inception_4c/relu_double3x3_reduce"
  type: "ReLU"
  bottom: "inc1/inception_4c/double3x3_reduce/bn"
  top: "inc1/inception_4c/double3x3_reduce/bn"
}
layer {
  name: "inc1/inception_4c/double3x3a"
  type: "Convolution"
  bottom: "inc1/inception_4c/double3x3_reduce/bn"
  top: "inc1/inception_4c/double3x3a"
  param {
    lr_mult: 1.0
    decay_mult: 1.0
  }
  convolution_param {
    num_output: 160
    bias_term: false
    pad: 1
    kernel_size: 3
    weight_filler {
      type: "xavier"
    }
  }
}
layer {
  name: "inc1/inception_4c/double3x3a/bn"
  type: "BN"
  bottom: "inc1/inception_4c/double3x3a"
  top: "inc1/inception_4c/double3x3a/bn"
  param {
    lr_mult: 1.0
    decay_mult: 0.0
  }
  param {
    lr_mult: 1.0
    decay_mult: 0.0
  }
  bn_param {
    scale_filler {
      type: "constant"
      value: 1.0
    }
    shift_filler {
      type: "constant"
      value: 0.0
    }
  }
}
layer {
  name: "inc1/inception_4c/relu_double3x3a"
  type: "ReLU"
  bottom: "inc1/inception_4c/double3x3a/bn"
  top: "inc1/inception_4c/double3x3a/bn"
}
layer {
  name: "inc1/inception_4c/double3x3b"
  type: "Convolution"
  bottom: "inc1/inception_4c/double3x3a/bn"
  top: "inc1/inception_4c/double3x3b"
  param {
    lr_mult: 1.0
    decay_mult: 1.0
  }
  convolution_param {
    num_output: 160
    bias_term: false
    pad: 1
    kernel_size: 3
    weight_filler {
      type: "xavier"
    }
  }
}
layer {
  name: "inc1/inception_4c/double3x3b/bn"
  type: "BN"
  bottom: "inc1/inception_4c/double3x3b"
  top: "inc1/inception_4c/double3x3b/bn"
  param {
    lr_mult: 1.0
    decay_mult: 0.0
  }
  param {
    lr_mult: 1.0
    decay_mult: 0.0
  }
  bn_param {
    scale_filler {
      type: "constant"
      value: 1.0
    }
    shift_filler {
      type: "constant"
      value: 0.0
    }
  }
}
layer {
  name: "inc1/inception_4c/relu_double3x3b"
  type: "ReLU"
  bottom: "inc1/inception_4c/double3x3b/bn"
  top: "inc1/inception_4c/double3x3b/bn"
}
layer {
  name: "inc1/inception_4c/pool"
  type: "Pooling"
  bottom: "inc1/inception_4b/output"
  top: "inc1/inception_4c/pool"
  pooling_param {
    pool: AVE
    kernel_size: 3
    stride: 1
    pad: 1
  }
}
layer {
  name: "inc1/inception_4c/pool_proj"
  type: "Convolution"
  bottom: "inc1/inception_4c/pool"
  top: "inc1/inception_4c/pool_proj"
  param {
    lr_mult: 1.0
    decay_mult: 1.0
  }
  convolution_param {
    num_output: 128
    bias_term: false
    kernel_size: 1
    weight_filler {
      type: "xavier"
    }
  }
}
layer {
  name: "inc1/inception_4c/pool_proj/bn"
  type: "BN"
  bottom: "inc1/inception_4c/pool_proj"
  top: "inc1/inception_4c/pool_proj/bn"
  param {
    lr_mult: 1.0
    decay_mult: 0.0
  }
  param {
    lr_mult: 1.0
    decay_mult: 0.0
  }
  bn_param {
    scale_filler {
      type: "constant"
      value: 1.0
    }
    shift_filler {
      type: "constant"
      value: 0.0
    }
  }
}
layer {
  name: "inc1/inception_4c/relu_pool_proj"
  type: "ReLU"
  bottom: "inc1/inception_4c/pool_proj/bn"
  top: "inc1/inception_4c/pool_proj/bn"
}
layer {
  name: "inc1/inception_4c/output"
  type: "Concat"
  bottom: "inc1/inception_4c/1x1/bn"
  bottom: "inc1/inception_4c/3x3/bn"
  bottom: "inc1/inception_4c/double3x3b/bn"
  bottom: "inc1/inception_4c/pool_proj/bn"
  top: "inc1/inception_4c/output"
}
layer {
  name: "inc1/inception_4d/1x1"
  type: "Convolution"
  bottom: "inc1/inception_4c/output"
  top: "inc1/inception_4d/1x1"
  param {
    lr_mult: 1.0
    decay_mult: 1.0
  }
  convolution_param {
    num_output: 96
    bias_term: false
    kernel_size: 1
    weight_filler {
      type: "xavier"
    }
  }
}
layer {
  name: "inc1/inception_4d/1x1/bn"
  type: "BN"
  bottom: "inc1/inception_4d/1x1"
  top: "inc1/inception_4d/1x1/bn"
  param {
    lr_mult: 1.0
    decay_mult: 0.0
  }
  param {
    lr_mult: 1.0
    decay_mult: 0.0
  }
  bn_param {
    scale_filler {
      type: "constant"
      value: 1.0
    }
    shift_filler {
      type: "constant"
      value: 0.0
    }
  }
}
layer {
  name: "inc1/inception_4d/relu_1x1"
  type: "ReLU"
  bottom: "inc1/inception_4d/1x1/bn"
  top: "inc1/inception_4d/1x1/bn"
}
layer {
  name: "inc1/inception_4d/3x3_reduce"
  type: "Convolution"
  bottom: "inc1/inception_4c/output"
  top: "inc1/inception_4d/3x3_reduce"
  param {
    lr_mult: 1.0
    decay_mult: 1.0
  }
  convolution_param {
    num_output: 128
    bias_term: false
    kernel_size: 1
    weight_filler {
      type: "xavier"
    }
  }
}
layer {
  name: "inc1/inception_4d/3x3_reduce/bn"
  type: "BN"
  bottom: "inc1/inception_4d/3x3_reduce"
  top: "inc1/inception_4d/3x3_reduce/bn"
  param {
    lr_mult: 1.0
    decay_mult: 0.0
  }
  param {
    lr_mult: 1.0
    decay_mult: 0.0
  }
  bn_param {
    scale_filler {
      type: "constant"
      value: 1.0
    }
    shift_filler {
      type: "constant"
      value: 0.0
    }
  }
}
layer {
  name: "inc1/inception_4d/relu_3x3_reduce"
  type: "ReLU"
  bottom: "inc1/inception_4d/3x3_reduce/bn"
  top: "inc1/inception_4d/3x3_reduce/bn"
}
layer {
  name: "inc1/inception_4d/3x3"
  type: "Convolution"
  bottom: "inc1/inception_4d/3x3_reduce/bn"
  top: "inc1/inception_4d/3x3"
  param {
    lr_mult: 1.0
    decay_mult: 1.0
  }
  convolution_param {
    num_output: 192
    bias_term: false
    pad: 1
    kernel_size: 3
    weight_filler {
      type: "xavier"
    }
  }
}
layer {
  name: "inc1/inception_4d/3x3/bn"
  type: "BN"
  bottom: "inc1/inception_4d/3x3"
  top: "inc1/inception_4d/3x3/bn"
  param {
    lr_mult: 1.0
    decay_mult: 0.0
  }
  param {
    lr_mult: 1.0
    decay_mult: 0.0
  }
  bn_param {
    scale_filler {
      type: "constant"
      value: 1.0
    }
    shift_filler {
      type: "constant"
      value: 0.0
    }
  }
}
layer {
  name: "inc1/inception_4d/relu_3x3"
  type: "ReLU"
  bottom: "inc1/inception_4d/3x3/bn"
  top: "inc1/inception_4d/3x3/bn"
}
layer {
  name: "inc1/inception_4d/double3x3_reduce"
  type: "Convolution"
  bottom: "inc1/inception_4c/output"
  top: "inc1/inception_4d/double3x3_reduce"
  param {
    lr_mult: 1.0
    decay_mult: 1.0
  }
  convolution_param {
    num_output: 160
    bias_term: false
    kernel_size: 1
    weight_filler {
      type: "xavier"
    }
  }
}
layer {
  name: "inc1/inception_4d/double3x3_reduce/bn"
  type: "BN"
  bottom: "inc1/inception_4d/double3x3_reduce"
  top: "inc1/inception_4d/double3x3_reduce/bn"
  param {
    lr_mult: 1.0
    decay_mult: 0.0
  }
  param {
    lr_mult: 1.0
    decay_mult: 0.0
  }
  bn_param {
    scale_filler {
      type: "constant"
      value: 1.0
    }
    shift_filler {
      type: "constant"
      value: 0.0
    }
  }
}
layer {
  name: "inc1/inception_4d/relu_double3x3_reduce"
  type: "ReLU"
  bottom: "inc1/inception_4d/double3x3_reduce/bn"
  top: "inc1/inception_4d/double3x3_reduce/bn"
}
layer {
  name: "inc1/inception_4d/double3x3a"
  type: "Convolution"
  bottom: "inc1/inception_4d/double3x3_reduce/bn"
  top: "inc1/inception_4d/double3x3a"
  param {
    lr_mult: 1.0
    decay_mult: 1.0
  }
  convolution_param {
    num_output: 192
    bias_term: false
    pad: 1
    kernel_size: 3
    weight_filler {
      type: "xavier"
    }
  }
}
layer {
  name: "inc1/inception_4d/double3x3a/bn"
  type: "BN"
  bottom: "inc1/inception_4d/double3x3a"
  top: "inc1/inception_4d/double3x3a/bn"
  param {
    lr_mult: 1.0
    decay_mult: 0.0
  }
  param {
    lr_mult: 1.0
    decay_mult: 0.0
  }
  bn_param {
    scale_filler {
      type: "constant"
      value: 1.0
    }
    shift_filler {
      type: "constant"
      value: 0.0
    }
  }
}
layer {
  name: "inc1/inception_4d/relu_double3x3a"
  type: "ReLU"
  bottom: "inc1/inception_4d/double3x3a/bn"
  top: "inc1/inception_4d/double3x3a/bn"
}
layer {
  name: "inc1/inception_4d/double3x3b"
  type: "Convolution"
  bottom: "inc1/inception_4d/double3x3a/bn"
  top: "inc1/inception_4d/double3x3b"
  param {
    lr_mult: 1.0
    decay_mult: 1.0
  }
  convolution_param {
    num_output: 192
    bias_term: false
    pad: 1
    kernel_size: 3
    weight_filler {
      type: "xavier"
    }
  }
}
layer {
  name: "inc1/inception_4d/double3x3b/bn"
  type: "BN"
  bottom: "inc1/inception_4d/double3x3b"
  top: "inc1/inception_4d/double3x3b/bn"
  param {
    lr_mult: 1.0
    decay_mult: 0.0
  }
  param {
    lr_mult: 1.0
    decay_mult: 0.0
  }
  bn_param {
    scale_filler {
      type: "constant"
      value: 1.0
    }
    shift_filler {
      type: "constant"
      value: 0.0
    }
  }
}
layer {
  name: "inc1/inception_4d/relu_double3x3b"
  type: "ReLU"
  bottom: "inc1/inception_4d/double3x3b/bn"
  top: "inc1/inception_4d/double3x3b/bn"
}
layer {
  name: "inc1/inception_4d/pool"
  type: "Pooling"
  bottom: "inc1/inception_4c/output"
  top: "inc1/inception_4d/pool"
  pooling_param {
    pool: AVE
    kernel_size: 3
    stride: 1
    pad: 1
  }
}
layer {
  name: "inc1/inception_4d/pool_proj"
  type: "Convolution"
  bottom: "inc1/inception_4d/pool"
  top: "inc1/inception_4d/pool_proj"
  param {
    lr_mult: 1.0
    decay_mult: 1.0
  }
  convolution_param {
    num_output: 128
    bias_term: false
    kernel_size: 1
    weight_filler {
      type: "xavier"
    }
  }
}
layer {
  name: "inc1/inception_4d/pool_proj/bn"
  type: "BN"
  bottom: "inc1/inception_4d/pool_proj"
  top: "inc1/inception_4d/pool_proj/bn"
  param {
    lr_mult: 1.0
    decay_mult: 0.0
  }
  param {
    lr_mult: 1.0
    decay_mult: 0.0
  }
  bn_param {
    scale_filler {
      type: "constant"
      value: 1.0
    }
    shift_filler {
      type: "constant"
      value: 0.0
    }
  }
}
layer {
  name: "inc1/inception_4d/relu_pool_proj"
  type: "ReLU"
  bottom: "inc1/inception_4d/pool_proj/bn"
  top: "inc1/inception_4d/pool_proj/bn"
}
layer {
  name: "inc1/inception_4d/output"
  type: "Concat"
  bottom: "inc1/inception_4d/1x1/bn"
  bottom: "inc1/inception_4d/3x3/bn"
  bottom: "inc1/inception_4d/double3x3b/bn"
  bottom: "inc1/inception_4d/pool_proj/bn"
  top: "inc1/inception_4d/output"
}
layer {
  name: "inc1/inception_4e/3x3_reduce"
  type: "Convolution"
  bottom: "inc1/inception_4d/output"
  top: "inc1/inception_4e/3x3_reduce"
  param {
    lr_mult: 1.0
    decay_mult: 1.0
  }
  convolution_param {
    num_output: 128
    bias_term: false
    kernel_size: 1
    weight_filler {
      type: "xavier"
    }
  }
}
layer {
  name: "inc1/inception_4e/3x3_reduce/bn"
  type: "BN"
  bottom: "inc1/inception_4e/3x3_reduce"
  top: "inc1/inception_4e/3x3_reduce/bn"
  param {
    lr_mult: 1.0
    decay_mult: 0.0
  }
  param {
    lr_mult: 1.0
    decay_mult: 0.0
  }
  bn_param {
    scale_filler {
      type: "constant"
      value: 1.0
    }
    shift_filler {
      type: "constant"
      value: 0.0
    }
  }
}
layer {
  name: "inc1/inception_4e/relu_3x3_reduce"
  type: "ReLU"
  bottom: "inc1/inception_4e/3x3_reduce/bn"
  top: "inc1/inception_4e/3x3_reduce/bn"
}
layer {
  name: "inc1/inception_4e/3x3"
  type: "Convolution"
  bottom: "inc1/inception_4e/3x3_reduce/bn"
  top: "inc1/inception_4e/3x3"
  param {
    lr_mult: 1.0
    decay_mult: 1.0
  }
  convolution_param {
    num_output: 192
    bias_term: false
    pad: 1
    kernel_size: 3
    stride: 2
    weight_filler {
      type: "xavier"
    }
  }
}
layer {
  name: "inc1/inception_4e/3x3/bn"
  type: "BN"
  bottom: "inc1/inception_4e/3x3"
  top: "inc1/inception_4e/3x3/bn"
  param {
    lr_mult: 1.0
    decay_mult: 0.0
  }
  param {
    lr_mult: 1.0
    decay_mult: 0.0
  }
  bn_param {
    scale_filler {
      type: "constant"
      value: 1.0
    }
    shift_filler {
      type: "constant"
      value: 0.0
    }
  }
}
layer {
  name: "inc1/inception_4e/relu_3x3"
  type: "ReLU"
  bottom: "inc1/inception_4e/3x3/bn"
  top: "inc1/inception_4e/3x3/bn"
}
layer {
  name: "inc1/inception_4e/double3x3_reduce"
  type: "Convolution"
  bottom: "inc1/inception_4d/output"
  top: "inc1/inception_4e/double3x3_reduce"
  param {
    lr_mult: 1.0
    decay_mult: 1.0
  }
  convolution_param {
    num_output: 192
    bias_term: false
    kernel_size: 1
    weight_filler {
      type: "xavier"
    }
  }
}
layer {
  name: "inc1/inception_4e/double3x3_reduce/bn"
  type: "BN"
  bottom: "inc1/inception_4e/double3x3_reduce"
  top: "inc1/inception_4e/double3x3_reduce/bn"
  param {
    lr_mult: 1.0
    decay_mult: 0.0
  }
  param {
    lr_mult: 1.0
    decay_mult: 0.0
  }
  bn_param {
    scale_filler {
      type: "constant"
      value: 1.0
    }
    shift_filler {
      type: "constant"
      value: 0.0
    }
  }
}
layer {
  name: "inc1/inception_4e/relu_double3x3_reduce"
  type: "ReLU"
  bottom: "inc1/inception_4e/double3x3_reduce/bn"
  top: "inc1/inception_4e/double3x3_reduce/bn"
}
layer {
  name: "inc1/inception_4e/double3x3a"
  type: "Convolution"
  bottom: "inc1/inception_4e/double3x3_reduce/bn"
  top: "inc1/inception_4e/double3x3a"
  param {
    lr_mult: 1.0
    decay_mult: 1.0
  }
  convolution_param {
    num_output: 256
    bias_term: false
    pad: 1
    kernel_size: 3
    weight_filler {
      type: "xavier"
    }
  }
}
layer {
  name: "inc1/inception_4e/double3x3a/bn"
  type: "BN"
  bottom: "inc1/inception_4e/double3x3a"
  top: "inc1/inception_4e/double3x3a/bn"
  param {
    lr_mult: 1.0
    decay_mult: 0.0
  }
  param {
    lr_mult: 1.0
    decay_mult: 0.0
  }
  bn_param {
    scale_filler {
      type: "constant"
      value: 1.0
    }
    shift_filler {
      type: "constant"
      value: 0.0
    }
  }
}
layer {
  name: "inc1/inception_4e/relu_double3x3a"
  type: "ReLU"
  bottom: "inc1/inception_4e/double3x3a/bn"
  top: "inc1/inception_4e/double3x3a/bn"
}
layer {
  name: "inc1/inception_4e/double3x3b"
  type: "Convolution"
  bottom: "inc1/inception_4e/double3x3a/bn"
  top: "inc1/inception_4e/double3x3b"
  param {
    lr_mult: 1.0
    decay_mult: 1.0
  }
  convolution_param {
    num_output: 256
    bias_term: false
    pad: 1
    kernel_size: 3
    stride: 2
    weight_filler {
      type: "xavier"
    }
  }
}
layer {
  name: "inc1/inception_4e/double3x3b/bn"
  type: "BN"
  bottom: "inc1/inception_4e/double3x3b"
  top: "inc1/inception_4e/double3x3b/bn"
  param {
    lr_mult: 1.0
    decay_mult: 0.0
  }
  param {
    lr_mult: 1.0
    decay_mult: 0.0
  }
  bn_param {
    scale_filler {
      type: "constant"
      value: 1.0
    }
    shift_filler {
      type: "constant"
      value: 0.0
    }
  }
}
layer {
  name: "inc1/inception_4e/relu_double3x3b"
  type: "ReLU"
  bottom: "inc1/inception_4e/double3x3b/bn"
  top: "inc1/inception_4e/double3x3b/bn"
}
layer {
  name: "inc1/inception_4e/pool/3x3_s2"
  type: "Pooling"
  bottom: "inc1/inception_4d/output"
  top: "inc1/inception_4e/pool/3x3_s2"
  pooling_param {
    pool: MAX
    kernel_size: 3
    stride: 2
  }
}
layer {
  name: "inc1/inception_4e/output"
  type: "Concat"
  bottom: "inc1/inception_4e/3x3/bn"
  bottom: "inc1/inception_4e/double3x3b/bn"
  bottom: "inc1/inception_4e/pool/3x3_s2"
  top: "inc1/inception_4e/output"
}
layer {
  name: "inc1/inception_5a/1x1"
  type: "Convolution"
  bottom: "inc1/inception_4e/output"
  top: "inc1/inception_5a/1x1"
  param {
    lr_mult: 1.0
    decay_mult: 1.0
  }
  convolution_param {
    num_output: 352
    bias_term: false
    kernel_size: 1
    weight_filler {
      type: "xavier"
    }
  }
}
layer {
  name: "inc1/inception_5a/1x1/bn"
  type: "BN"
  bottom: "inc1/inception_5a/1x1"
  top: "inc1/inception_5a/1x1/bn"
  param {
    lr_mult: 1.0
    decay_mult: 0.0
  }
  param {
    lr_mult: 1.0
    decay_mult: 0.0
  }
  bn_param {
    scale_filler {
      type: "constant"
      value: 1.0
    }
    shift_filler {
      type: "constant"
      value: 0.0
    }
  }
}
layer {
  name: "inc1/inception_5a/relu_1x1"
  type: "ReLU"
  bottom: "inc1/inception_5a/1x1/bn"
  top: "inc1/inception_5a/1x1/bn"
}
layer {
  name: "inc1/inception_5a/3x3_reduce"
  type: "Convolution"
  bottom: "inc1/inception_4e/output"
  top: "inc1/inception_5a/3x3_reduce"
  param {
    lr_mult: 1.0
    decay_mult: 1.0
  }
  convolution_param {
    num_output: 192
    bias_term: false
    kernel_size: 1
    weight_filler {
      type: "xavier"
    }
  }
}
layer {
  name: "inc1/inception_5a/3x3_reduce/bn"
  type: "BN"
  bottom: "inc1/inception_5a/3x3_reduce"
  top: "inc1/inception_5a/3x3_reduce/bn"
  param {
    lr_mult: 1.0
    decay_mult: 0.0
  }
  param {
    lr_mult: 1.0
    decay_mult: 0.0
  }
  bn_param {
    scale_filler {
      type: "constant"
      value: 1.0
    }
    shift_filler {
      type: "constant"
      value: 0.0
    }
  }
}
layer {
  name: "inc1/inception_5a/relu_3x3_reduce"
  type: "ReLU"
  bottom: "inc1/inception_5a/3x3_reduce/bn"
  top: "inc1/inception_5a/3x3_reduce/bn"
}
layer {
  name: "inc1/inception_5a/3x3"
  type: "Convolution"
  bottom: "inc1/inception_5a/3x3_reduce/bn"
  top: "inc1/inception_5a/3x3"
  param {
    lr_mult: 1.0
    decay_mult: 1.0
  }
  convolution_param {
    num_output: 320
    bias_term: false
    pad: 1
    kernel_size: 3
    weight_filler {
      type: "xavier"
    }
  }
}
layer {
  name: "inc1/inception_5a/3x3/bn"
  type: "BN"
  bottom: "inc1/inception_5a/3x3"
  top: "inc1/inception_5a/3x3/bn"
  param {
    lr_mult: 1.0
    decay_mult: 0.0
  }
  param {
    lr_mult: 1.0
    decay_mult: 0.0
  }
  bn_param {
    scale_filler {
      type: "constant"
      value: 1.0
    }
    shift_filler {
      type: "constant"
      value: 0.0
    }
  }
}
layer {
  name: "inc1/inception_5a/relu_3x3"
  type: "ReLU"
  bottom: "inc1/inception_5a/3x3/bn"
  top: "inc1/inception_5a/3x3/bn"
}
layer {
  name: "inc1/inception_5a/double3x3_reduce"
  type: "Convolution"
  bottom: "inc1/inception_4e/output"
  top: "inc1/inception_5a/double3x3_reduce"
  param {
    lr_mult: 1.0
    decay_mult: 1.0
  }
  convolution_param {
    num_output: 160
    bias_term: false
    kernel_size: 1
    weight_filler {
      type: "xavier"
    }
  }
}
layer {
  name: "inc1/inception_5a/double3x3_reduce/bn"
  type: "BN"
  bottom: "inc1/inception_5a/double3x3_reduce"
  top: "inc1/inception_5a/double3x3_reduce/bn"
  param {
    lr_mult: 1.0
    decay_mult: 0.0
  }
  param {
    lr_mult: 1.0
    decay_mult: 0.0
  }
  bn_param {
    scale_filler {
      type: "constant"
      value: 1.0
    }
    shift_filler {
      type: "constant"
      value: 0.0
    }
  }
}
layer {
  name: "inc1/inception_5a/relu_double3x3_reduce"
  type: "ReLU"
  bottom: "inc1/inception_5a/double3x3_reduce/bn"
  top: "inc1/inception_5a/double3x3_reduce/bn"
}
layer {
  name: "inc1/inception_5a/double3x3a"
  type: "Convolution"
  bottom: "inc1/inception_5a/double3x3_reduce/bn"
  top: "inc1/inception_5a/double3x3a"
  param {
    lr_mult: 1.0
    decay_mult: 1.0
  }
  convolution_param {
    num_output: 224
    bias_term: false
    pad: 1
    kernel_size: 3
    weight_filler {
      type: "xavier"
    }
  }
}
layer {
  name: "inc1/inception_5a/double3x3a/bn"
  type: "BN"
  bottom: "inc1/inception_5a/double3x3a"
  top: "inc1/inception_5a/double3x3a/bn"
  param {
    lr_mult: 1.0
    decay_mult: 0.0
  }
  param {
    lr_mult: 1.0
    decay_mult: 0.0
  }
  bn_param {
    scale_filler {
      type: "constant"
      value: 1.0
    }
    shift_filler {
      type: "constant"
      value: 0.0
    }
  }
}
layer {
  name: "inc1/inception_5a/relu_double3x3a"
  type: "ReLU"
  bottom: "inc1/inception_5a/double3x3a/bn"
  top: "inc1/inception_5a/double3x3a/bn"
}
layer {
  name: "inc1/inception_5a/double3x3b"
  type: "Convolution"
  bottom: "inc1/inception_5a/double3x3a/bn"
  top: "inc1/inception_5a/double3x3b"
  param {
    lr_mult: 1.0
    decay_mult: 1.0
  }
  convolution_param {
    num_output: 224
    bias_term: false
    pad: 1
    kernel_size: 3
    weight_filler {
      type: "xavier"
    }
  }
}
layer {
  name: "inc1/inception_5a/double3x3b/bn"
  type: "BN"
  bottom: "inc1/inception_5a/double3x3b"
  top: "inc1/inception_5a/double3x3b/bn"
  param {
    lr_mult: 1.0
    decay_mult: 0.0
  }
  param {
    lr_mult: 1.0
    decay_mult: 0.0
  }
  bn_param {
    scale_filler {
      type: "constant"
      value: 1.0
    }
    shift_filler {
      type: "constant"
      value: 0.0
    }
  }
}
layer {
  name: "inc1/inception_5a/relu_double3x3b"
  type: "ReLU"
  bottom: "inc1/inception_5a/double3x3b/bn"
  top: "inc1/inception_5a/double3x3b/bn"
}
layer {
  name: "inc1/inception_5a/pool"
  type: "Pooling"
  bottom: "inc1/inception_4e/output"
  top: "inc1/inception_5a/pool"
  pooling_param {
    pool: AVE
    kernel_size: 3
    stride: 1
    pad: 1
  }
}
layer {
  name: "inc1/inception_5a/pool_proj"
  type: "Convolution"
  bottom: "inc1/inception_5a/pool"
  top: "inc1/inception_5a/pool_proj"
  param {
    lr_mult: 1.0
    decay_mult: 1.0
  }
  convolution_param {
    num_output: 128
    bias_term: false
    kernel_size: 1
    weight_filler {
      type: "xavier"
    }
  }
}
layer {
  name: "inc1/inception_5a/pool_proj/bn"
  type: "BN"
  bottom: "inc1/inception_5a/pool_proj"
  top: "inc1/inception_5a/pool_proj/bn"
  param {
    lr_mult: 1.0
    decay_mult: 0.0
  }
  param {
    lr_mult: 1.0
    decay_mult: 0.0
  }
  bn_param {
    scale_filler {
      type: "constant"
      value: 1.0
    }
    shift_filler {
      type: "constant"
      value: 0.0
    }
  }
}
layer {
  name: "inc1/inception_5a/relu_pool_proj"
  type: "ReLU"
  bottom: "inc1/inception_5a/pool_proj/bn"
  top: "inc1/inception_5a/pool_proj/bn"
}
layer {
  name: "inc1/inception_5a/output"
  type: "Concat"
  bottom: "inc1/inception_5a/1x1/bn"
  bottom: "inc1/inception_5a/3x3/bn"
  bottom: "inc1/inception_5a/double3x3b/bn"
  bottom: "inc1/inception_5a/pool_proj/bn"
  top: "inc1/inception_5a/output"
}
layer {
  name: "inc1/inception_5b/1x1"
  type: "Convolution"
  bottom: "inc1/inception_5a/output"
  top: "inc1/inception_5b/1x1"
  param {
    lr_mult: 1.0
    decay_mult: 1.0
  }
  convolution_param {
    num_output: 352
    bias_term: false
    kernel_size: 1
    weight_filler {
      type: "xavier"
    }
  }
}
layer {
  name: "inc1/inception_5b/1x1/bn"
  type: "BN"
  bottom: "inc1/inception_5b/1x1"
  top: "inc1/inception_5b/1x1/bn"
  param {
    lr_mult: 1.0
    decay_mult: 0.0
  }
  param {
    lr_mult: 1.0
    decay_mult: 0.0
  }
  bn_param {
    scale_filler {
      type: "constant"
      value: 1.0
    }
    shift_filler {
      type: "constant"
      value: 0.0
    }
  }
}
layer {
  name: "inc1/inception_5b/relu_1x1"
  type: "ReLU"
  bottom: "inc1/inception_5b/1x1/bn"
  top: "inc1/inception_5b/1x1/bn"
}
layer {
  name: "inc1/inception_5b/3x3_reduce"
  type: "Convolution"
  bottom: "inc1/inception_5a/output"
  top: "inc1/inception_5b/3x3_reduce"
  param {
    lr_mult: 1.0
    decay_mult: 1.0
  }
  convolution_param {
    num_output: 192
    bias_term: false
    kernel_size: 1
    weight_filler {
      type: "xavier"
    }
  }
}
layer {
  name: "inc1/inception_5b/3x3_reduce/bn"
  type: "BN"
  bottom: "inc1/inception_5b/3x3_reduce"
  top: "inc1/inception_5b/3x3_reduce/bn"
  param {
    lr_mult: 1.0
    decay_mult: 0.0
  }
  param {
    lr_mult: 1.0
    decay_mult: 0.0
  }
  bn_param {
    scale_filler {
      type: "constant"
      value: 1.0
    }
    shift_filler {
      type: "constant"
      value: 0.0
    }
  }
}
layer {
  name: "inc1/inception_5b/relu_3x3_reduce"
  type: "ReLU"
  bottom: "inc1/inception_5b/3x3_reduce/bn"
  top: "inc1/inception_5b/3x3_reduce/bn"
}
layer {
  name: "inc1/inception_5b/3x3"
  type: "Convolution"
  bottom: "inc1/inception_5b/3x3_reduce/bn"
  top: "inc1/inception_5b/3x3"
  param {
    lr_mult: 1.0
    decay_mult: 1.0
  }
  convolution_param {
    num_output: 320
    bias_term: false
    pad: 1
    kernel_size: 3
    weight_filler {
      type: "xavier"
    }
  }
}
layer {
  name: "inc1/inception_5b/3x3/bn"
  type: "BN"
  bottom: "inc1/inception_5b/3x3"
  top: "inc1/inception_5b/3x3/bn"
  param {
    lr_mult: 1.0
    decay_mult: 0.0
  }
  param {
    lr_mult: 1.0
    decay_mult: 0.0
  }
  bn_param {
    scale_filler {
      type: "constant"
      value: 1.0
    }
    shift_filler {
      type: "constant"
      value: 0.0
    }
  }
}
layer {
  name: "inc1/inception_5b/relu_3x3"
  type: "ReLU"
  bottom: "inc1/inception_5b/3x3/bn"
  top: "inc1/inception_5b/3x3/bn"
}
layer {
  name: "inc1/inception_5b/double3x3_reduce"
  type: "Convolution"
  bottom: "inc1/inception_5a/output"
  top: "inc1/inception_5b/double3x3_reduce"
  param {
    lr_mult: 1.0
    decay_mult: 1.0
  }
  convolution_param {
    num_output: 192
    bias_term: false
    kernel_size: 1
    weight_filler {
      type: "xavier"
    }
  }
}
layer {
  name: "inc1/inception_5b/double3x3_reduce/bn"
  type: "BN"
  bottom: "inc1/inception_5b/double3x3_reduce"
  top: "inc1/inception_5b/double3x3_reduce/bn"
  param {
    lr_mult: 1.0
    decay_mult: 0.0
  }
  param {
    lr_mult: 1.0
    decay_mult: 0.0
  }
  bn_param {
    scale_filler {
      type: "constant"
      value: 1.0
    }
    shift_filler {
      type: "constant"
      value: 0.0
    }
  }
}
layer {
  name: "inc1/inception_5b/relu_double3x3_reduce"
  type: "ReLU"
  bottom: "inc1/inception_5b/double3x3_reduce/bn"
  top: "inc1/inception_5b/double3x3_reduce/bn"
}
layer {
  name: "inc1/inception_5b/double3x3a"
  type: "Convolution"
  bottom: "inc1/inception_5b/double3x3_reduce/bn"
  top: "inc1/inception_5b/double3x3a"
  param {
    lr_mult: 1.0
    decay_mult: 1.0
  }
  convolution_param {
    num_output: 224
    bias_term: false
    pad: 1
    kernel_size: 3
    weight_filler {
      type: "xavier"
    }
  }
}
layer {
  name: "inc1/inception_5b/double3x3a/bn"
  type: "BN"
  bottom: "inc1/inception_5b/double3x3a"
  top: "inc1/inception_5b/double3x3a/bn"
  param {
    lr_mult: 1.0
    decay_mult: 0.0
  }
  param {
    lr_mult: 1.0
    decay_mult: 0.0
  }
  bn_param {
    scale_filler {
      type: "constant"
      value: 1.0
    }
    shift_filler {
      type: "constant"
      value: 0.0
    }
  }
}
layer {
  name: "inc1/inception_5b/relu_double3x3a"
  type: "ReLU"
  bottom: "inc1/inception_5b/double3x3a/bn"
  top: "inc1/inception_5b/double3x3a/bn"
}
layer {
  name: "inc1/inception_5b/double3x3b"
  type: "Convolution"
  bottom: "inc1/inception_5b/double3x3a/bn"
  top: "inc1/inception_5b/double3x3b"
  param {
    lr_mult: 1.0
    decay_mult: 1.0
  }
  convolution_param {
    num_output: 224
    bias_term: false
    pad: 1
    kernel_size: 3
    weight_filler {
      type: "xavier"
    }
  }
}
layer {
  name: "inc1/inception_5b/double3x3b/bn"
  type: "BN"
  bottom: "inc1/inception_5b/double3x3b"
  top: "inc1/inception_5b/double3x3b/bn"
  param {
    lr_mult: 1.0
    decay_mult: 0.0
  }
  param {
    lr_mult: 1.0
    decay_mult: 0.0
  }
  bn_param {
    scale_filler {
      type: "constant"
      value: 1.0
    }
    shift_filler {
      type: "constant"
      value: 0.0
    }
  }
}
layer {
  name: "inc1/inception_5b/relu_double3x3b"
  type: "ReLU"
  bottom: "inc1/inception_5b/double3x3b/bn"
  top: "inc1/inception_5b/double3x3b/bn"
}
layer {
  name: "inc1/inception_5b/pool"
  type: "Pooling"
  bottom: "inc1/inception_5a/output"
  top: "inc1/inception_5b/pool"
  pooling_param {
    pool: MAX
    kernel_size: 3
    stride: 1
    pad: 1
  }
}
layer {
  name: "inc1/inception_5b/pool_proj"
  type: "Convolution"
  bottom: "inc1/inception_5b/pool"
  top: "inc1/inception_5b/pool_proj"
  param {
    lr_mult: 1.0
    decay_mult: 1.0
  }
  convolution_param {
    num_output: 128
    bias_term: false
    kernel_size: 1
    weight_filler {
      type: "xavier"
    }
  }
}
layer {
  name: "inc1/inception_5b/pool_proj/bn"
  type: "BN"
  bottom: "inc1/inception_5b/pool_proj"
  top: "inc1/inception_5b/pool_proj/bn"
  param {
    lr_mult: 1.0
    decay_mult: 0.0
  }
  param {
    lr_mult: 1.0
    decay_mult: 0.0
  }
  bn_param {
    scale_filler {
      type: "constant"
      value: 1.0
    }
    shift_filler {
      type: "constant"
      value: 0.0
    }
  }
}
layer {
  name: "inc1/inception_5b/relu_pool_proj"
  type: "ReLU"
  bottom: "inc1/inception_5b/pool_proj/bn"
  top: "inc1/inception_5b/pool_proj/bn"
}
layer {
  name: "inc1/inception_5b/output"
  type: "Concat"
  bottom: "inc1/inception_5b/1x1/bn"
  bottom: "inc1/inception_5b/3x3/bn"
  bottom: "inc1/inception_5b/double3x3b/bn"
  bottom: "inc1/inception_5b/pool_proj/bn"
  top: "inc1/inception_5b/output"
}
layer {
  name: "inc1/pool5/7x7_s1"
  type: "Pooling"
  bottom: "inc1/inception_5b/output"
  top: "inc1/pool5/7x7_s1"
  pooling_param {
    pool: AVE
    kernel_size: 7
    stride: 1
  }
}
layer {
  name: "inc2/conv1/7x7_s2"
  type: "Convolution"
  bottom: "inc2/data"
  top: "inc2/conv1/7x7_s2"
  param {
    lr_mult: 1.0
    decay_mult: 1.0
  }
  convolution_param {
    num_output: 64
    bias_term: false
    pad: 3
    kernel_size: 7
    stride: 2
    weight_filler {
      type: "xavier"
    }
  }
}
layer {
  name: "inc2/conv1/7x7_s2/bn"
  type: "BN"
  bottom: "inc2/conv1/7x7_s2"
  top: "inc2/conv1/7x7_s2/bn"
  param {
    lr_mult: 1.0
    decay_mult: 0.0
  }
  param {
    lr_mult: 1.0
    decay_mult: 0.0
  }
  bn_param {
    scale_filler {
      type: "constant"
      value: 1.0
    }
    shift_filler {
      type: "constant"
      value: 0.0
    }
  }
}
layer {
  name: "inc2/conv1/relu_7x7"
  type: "ReLU"
  bottom: "inc2/conv1/7x7_s2/bn"
  top: "inc2/conv1/7x7_s2/bn"
}
layer {
  name: "inc2/pool1/3x3_s2"
  type: "Pooling"
  bottom: "inc2/conv1/7x7_s2/bn"
  top: "inc2/pool1/3x3_s2"
  pooling_param {
    pool: MAX
    kernel_size: 3
    stride: 2
  }
}
layer {
  name: "inc2/conv2/3x3_reduce"
  type: "Convolution"
  bottom: "inc2/pool1/3x3_s2"
  top: "inc2/conv2/3x3_reduce"
  param {
    lr_mult: 1.0
    decay_mult: 1.0
  }
  convolution_param {
    num_output: 64
    bias_term: false
    kernel_size: 1
    weight_filler {
      type: "xavier"
    }
  }
}
layer {
  name: "inc2/conv2/3x3_reduce/bn"
  type: "BN"
  bottom: "inc2/conv2/3x3_reduce"
  top: "inc2/conv2/3x3_reduce/bn"
  param {
    lr_mult: 1.0
    decay_mult: 0.0
  }
  param {
    lr_mult: 1.0
    decay_mult: 0.0
  }
  bn_param {
    scale_filler {
      type: "constant"
      value: 1.0
    }
    shift_filler {
      type: "constant"
      value: 0.0
    }
  }
}
layer {
  name: "inc2/conv2/relu_3x3_reduce"
  type: "ReLU"
  bottom: "inc2/conv2/3x3_reduce/bn"
  top: "inc2/conv2/3x3_reduce/bn"
}
layer {
  name: "inc2/conv2/3x3"
  type: "Convolution"
  bottom: "inc2/conv2/3x3_reduce/bn"
  top: "inc2/conv2/3x3"
  param {
    lr_mult: 1.0
    decay_mult: 1.0
  }
  convolution_param {
    num_output: 192
    bias_term: false
    pad: 1
    kernel_size: 3
    weight_filler {
      type: "xavier"
    }
  }
}
layer {
  name: "inc2/conv2/3x3/bn"
  type: "BN"
  bottom: "inc2/conv2/3x3"
  top: "inc2/conv2/3x3/bn"
  param {
    lr_mult: 1.0
    decay_mult: 0.0
  }
  param {
    lr_mult: 1.0
    decay_mult: 0.0
  }
  bn_param {
    scale_filler {
      type: "constant"
      value: 1.0
    }
    shift_filler {
      type: "constant"
      value: 0.0
    }
  }
}
layer {
  name: "inc2/conv2/relu_3x3"
  type: "ReLU"
  bottom: "inc2/conv2/3x3/bn"
  top: "inc2/conv2/3x3/bn"
}
layer {
  name: "inc2/pool2/3x3_s2"
  type: "Pooling"
  bottom: "inc2/conv2/3x3/bn"
  top: "inc2/pool2/3x3_s2"
  pooling_param {
    pool: MAX
    kernel_size: 3
    stride: 2
  }
}
layer {
  name: "inc2/inception_3a/1x1"
  type: "Convolution"
  bottom: "inc2/pool2/3x3_s2"
  top: "inc2/inception_3a/1x1"
  param {
    lr_mult: 1.0
    decay_mult: 1.0
  }
  convolution_param {
    num_output: 64
    bias_term: false
    kernel_size: 1
    weight_filler {
      type: "xavier"
    }
  }
}
layer {
  name: "inc2/inception_3a/1x1/bn"
  type: "BN"
  bottom: "inc2/inception_3a/1x1"
  top: "inc2/inception_3a/1x1/bn"
  param {
    lr_mult: 1.0
    decay_mult: 0.0
  }
  param {
    lr_mult: 1.0
    decay_mult: 0.0
  }
  bn_param {
    scale_filler {
      type: "constant"
      value: 1.0
    }
    shift_filler {
      type: "constant"
      value: 0.0
    }
  }
}
layer {
  name: "inc2/inception_3a/relu_1x1"
  type: "ReLU"
  bottom: "inc2/inception_3a/1x1/bn"
  top: "inc2/inception_3a/1x1/bn"
}
layer {
  name: "inc2/inception_3a/3x3_reduce"
  type: "Convolution"
  bottom: "inc2/pool2/3x3_s2"
  top: "inc2/inception_3a/3x3_reduce"
  param {
    lr_mult: 1.0
    decay_mult: 1.0
  }
  convolution_param {
    num_output: 64
    bias_term: false
    kernel_size: 1
    weight_filler {
      type: "xavier"
    }
  }
}
layer {
  name: "inc2/inception_3a/3x3_reduce/bn"
  type: "BN"
  bottom: "inc2/inception_3a/3x3_reduce"
  top: "inc2/inception_3a/3x3_reduce/bn"
  param {
    lr_mult: 1.0
    decay_mult: 0.0
  }
  param {
    lr_mult: 1.0
    decay_mult: 0.0
  }
  bn_param {
    scale_filler {
      type: "constant"
      value: 1.0
    }
    shift_filler {
      type: "constant"
      value: 0.0
    }
  }
}
layer {
  name: "inc2/inception_3a/relu_3x3_reduce"
  type: "ReLU"
  bottom: "inc2/inception_3a/3x3_reduce/bn"
  top: "inc2/inception_3a/3x3_reduce/bn"
}
layer {
  name: "inc2/inception_3a/3x3"
  type: "Convolution"
  bottom: "inc2/inception_3a/3x3_reduce/bn"
  top: "inc2/inception_3a/3x3"
  param {
    lr_mult: 1.0
    decay_mult: 1.0
  }
  convolution_param {
    num_output: 64
    bias_term: false
    pad: 1
    kernel_size: 3
    weight_filler {
      type: "xavier"
    }
  }
}
layer {
  name: "inc2/inception_3a/3x3/bn"
  type: "BN"
  bottom: "inc2/inception_3a/3x3"
  top: "inc2/inception_3a/3x3/bn"
  param {
    lr_mult: 1.0
    decay_mult: 0.0
  }
  param {
    lr_mult: 1.0
    decay_mult: 0.0
  }
  bn_param {
    scale_filler {
      type: "constant"
      value: 1.0
    }
    shift_filler {
      type: "constant"
      value: 0.0
    }
  }
}
layer {
  name: "inc2/inception_3a/relu_3x3"
  type: "ReLU"
  bottom: "inc2/inception_3a/3x3/bn"
  top: "inc2/inception_3a/3x3/bn"
}
layer {
  name: "inc2/inception_3a/double3x3_reduce"
  type: "Convolution"
  bottom: "inc2/pool2/3x3_s2"
  top: "inc2/inception_3a/double3x3_reduce"
  param {
    lr_mult: 1.0
    decay_mult: 1.0
  }
  convolution_param {
    num_output: 64
    bias_term: false
    kernel_size: 1
    weight_filler {
      type: "xavier"
    }
  }
}
layer {
  name: "inc2/inception_3a/double3x3_reduce/bn"
  type: "BN"
  bottom: "inc2/inception_3a/double3x3_reduce"
  top: "inc2/inception_3a/double3x3_reduce/bn"
  param {
    lr_mult: 1.0
    decay_mult: 0.0
  }
  param {
    lr_mult: 1.0
    decay_mult: 0.0
  }
  bn_param {
    scale_filler {
      type: "constant"
      value: 1.0
    }
    shift_filler {
      type: "constant"
      value: 0.0
    }
  }
}
layer {
  name: "inc2/inception_3a/relu_double3x3_reduce"
  type: "ReLU"
  bottom: "inc2/inception_3a/double3x3_reduce/bn"
  top: "inc2/inception_3a/double3x3_reduce/bn"
}
layer {
  name: "inc2/inception_3a/double3x3a"
  type: "Convolution"
  bottom: "inc2/inception_3a/double3x3_reduce/bn"
  top: "inc2/inception_3a/double3x3a"
  param {
    lr_mult: 1.0
    decay_mult: 1.0
  }
  convolution_param {
    num_output: 96
    bias_term: false
    pad: 1
    kernel_size: 3
    weight_filler {
      type: "xavier"
    }
  }
}
layer {
  name: "inc2/inception_3a/double3x3a/bn"
  type: "BN"
  bottom: "inc2/inception_3a/double3x3a"
  top: "inc2/inception_3a/double3x3a/bn"
  param {
    lr_mult: 1.0
    decay_mult: 0.0
  }
  param {
    lr_mult: 1.0
    decay_mult: 0.0
  }
  bn_param {
    scale_filler {
      type: "constant"
      value: 1.0
    }
    shift_filler {
      type: "constant"
      value: 0.0
    }
  }
}
layer {
  name: "inc2/inception_3a/relu_double3x3a"
  type: "ReLU"
  bottom: "inc2/inception_3a/double3x3a/bn"
  top: "inc2/inception_3a/double3x3a/bn"
}
layer {
  name: "inc2/inception_3a/double3x3b"
  type: "Convolution"
  bottom: "inc2/inception_3a/double3x3a/bn"
  top: "inc2/inception_3a/double3x3b"
  param {
    lr_mult: 1.0
    decay_mult: 1.0
  }
  convolution_param {
    num_output: 96
    bias_term: false
    pad: 1
    kernel_size: 3
    weight_filler {
      type: "xavier"
    }
  }
}
layer {
  name: "inc2/inception_3a/double3x3b/bn"
  type: "BN"
  bottom: "inc2/inception_3a/double3x3b"
  top: "inc2/inception_3a/double3x3b/bn"
  param {
    lr_mult: 1.0
    decay_mult: 0.0
  }
  param {
    lr_mult: 1.0
    decay_mult: 0.0
  }
  bn_param {
    scale_filler {
      type: "constant"
      value: 1.0
    }
    shift_filler {
      type: "constant"
      value: 0.0
    }
  }
}
layer {
  name: "inc2/inception_3a/relu_double3x3b"
  type: "ReLU"
  bottom: "inc2/inception_3a/double3x3b/bn"
  top: "inc2/inception_3a/double3x3b/bn"
}
layer {
  name: "inc2/inception_3a/pool"
  type: "Pooling"
  bottom: "inc2/pool2/3x3_s2"
  top: "inc2/inception_3a/pool"
  pooling_param {
    pool: AVE
    kernel_size: 3
    stride: 1
    pad: 1
  }
}
layer {
  name: "inc2/inception_3a/pool_proj"
  type: "Convolution"
  bottom: "inc2/inception_3a/pool"
  top: "inc2/inception_3a/pool_proj"
  param {
    lr_mult: 1.0
    decay_mult: 1.0
  }
  convolution_param {
    num_output: 32
    bias_term: false
    kernel_size: 1
    weight_filler {
      type: "xavier"
    }
  }
}
layer {
  name: "inc2/inception_3a/pool_proj/bn"
  type: "BN"
  bottom: "inc2/inception_3a/pool_proj"
  top: "inc2/inception_3a/pool_proj/bn"
  param {
    lr_mult: 1.0
    decay_mult: 0.0
  }
  param {
    lr_mult: 1.0
    decay_mult: 0.0
  }
  bn_param {
    scale_filler {
      type: "constant"
      value: 1.0
    }
    shift_filler {
      type: "constant"
      value: 0.0
    }
  }
}
layer {
  name: "inc2/inception_3a/relu_pool_proj"
  type: "ReLU"
  bottom: "inc2/inception_3a/pool_proj/bn"
  top: "inc2/inception_3a/pool_proj/bn"
}
layer {
  name: "inc2/inception_3a/output"
  type: "Concat"
  bottom: "inc2/inception_3a/1x1/bn"
  bottom: "inc2/inception_3a/3x3/bn"
  bottom: "inc2/inception_3a/double3x3b/bn"
  bottom: "inc2/inception_3a/pool_proj/bn"
  top: "inc2/inception_3a/output"
}
layer {
  name: "inc2/inception_3b/1x1"
  type: "Convolution"
  bottom: "inc2/inception_3a/output"
  top: "inc2/inception_3b/1x1"
  param {
    lr_mult: 1.0
    decay_mult: 1.0
  }
  convolution_param {
    num_output: 64
    bias_term: false
    kernel_size: 1
    weight_filler {
      type: "xavier"
    }
  }
}
layer {
  name: "inc2/inception_3b/1x1/bn"
  type: "BN"
  bottom: "inc2/inception_3b/1x1"
  top: "inc2/inception_3b/1x1/bn"
  param {
    lr_mult: 1.0
    decay_mult: 0.0
  }
  param {
    lr_mult: 1.0
    decay_mult: 0.0
  }
  bn_param {
    scale_filler {
      type: "constant"
      value: 1.0
    }
    shift_filler {
      type: "constant"
      value: 0.0
    }
  }
}
layer {
  name: "inc2/inception_3b/relu_1x1"
  type: "ReLU"
  bottom: "inc2/inception_3b/1x1/bn"
  top: "inc2/inception_3b/1x1/bn"
}
layer {
  name: "inc2/inception_3b/3x3_reduce"
  type: "Convolution"
  bottom: "inc2/inception_3a/output"
  top: "inc2/inception_3b/3x3_reduce"
  param {
    lr_mult: 1.0
    decay_mult: 1.0
  }
  convolution_param {
    num_output: 64
    bias_term: false
    kernel_size: 1
    weight_filler {
      type: "xavier"
    }
  }
}
layer {
  name: "inc2/inception_3b/3x3_reduce/bn"
  type: "BN"
  bottom: "inc2/inception_3b/3x3_reduce"
  top: "inc2/inception_3b/3x3_reduce/bn"
  param {
    lr_mult: 1.0
    decay_mult: 0.0
  }
  param {
    lr_mult: 1.0
    decay_mult: 0.0
  }
  bn_param {
    scale_filler {
      type: "constant"
      value: 1.0
    }
    shift_filler {
      type: "constant"
      value: 0.0
    }
  }
}
layer {
  name: "inc2/inception_3b/relu_3x3_reduce"
  type: "ReLU"
  bottom: "inc2/inception_3b/3x3_reduce/bn"
  top: "inc2/inception_3b/3x3_reduce/bn"
}
layer {
  name: "inc2/inception_3b/3x3"
  type: "Convolution"
  bottom: "inc2/inception_3b/3x3_reduce/bn"
  top: "inc2/inception_3b/3x3"
  param {
    lr_mult: 1.0
    decay_mult: 1.0
  }
  convolution_param {
    num_output: 96
    bias_term: false
    pad: 1
    kernel_size: 3
    weight_filler {
      type: "xavier"
    }
  }
}
layer {
  name: "inc2/inception_3b/3x3/bn"
  type: "BN"
  bottom: "inc2/inception_3b/3x3"
  top: "inc2/inception_3b/3x3/bn"
  param {
    lr_mult: 1.0
    decay_mult: 0.0
  }
  param {
    lr_mult: 1.0
    decay_mult: 0.0
  }
  bn_param {
    scale_filler {
      type: "constant"
      value: 1.0
    }
    shift_filler {
      type: "constant"
      value: 0.0
    }
  }
}
layer {
  name: "inc2/inception_3b/relu_3x3"
  type: "ReLU"
  bottom: "inc2/inception_3b/3x3/bn"
  top: "inc2/inception_3b/3x3/bn"
}
layer {
  name: "inc2/inception_3b/double3x3_reduce"
  type: "Convolution"
  bottom: "inc2/inception_3a/output"
  top: "inc2/inception_3b/double3x3_reduce"
  param {
    lr_mult: 1.0
    decay_mult: 1.0
  }
  convolution_param {
    num_output: 64
    bias_term: false
    kernel_size: 1
    weight_filler {
      type: "xavier"
    }
  }
}
layer {
  name: "inc2/inception_3b/double3x3_reduce/bn"
  type: "BN"
  bottom: "inc2/inception_3b/double3x3_reduce"
  top: "inc2/inception_3b/double3x3_reduce/bn"
  param {
    lr_mult: 1.0
    decay_mult: 0.0
  }
  param {
    lr_mult: 1.0
    decay_mult: 0.0
  }
  bn_param {
    scale_filler {
      type: "constant"
      value: 1.0
    }
    shift_filler {
      type: "constant"
      value: 0.0
    }
  }
}
layer {
  name: "inc2/inception_3b/relu_double3x3_reduce"
  type: "ReLU"
  bottom: "inc2/inception_3b/double3x3_reduce/bn"
  top: "inc2/inception_3b/double3x3_reduce/bn"
}
layer {
  name: "inc2/inception_3b/double3x3a"
  type: "Convolution"
  bottom: "inc2/inception_3b/double3x3_reduce/bn"
  top: "inc2/inception_3b/double3x3a"
  param {
    lr_mult: 1.0
    decay_mult: 1.0
  }
  convolution_param {
    num_output: 96
    bias_term: false
    pad: 1
    kernel_size: 3
    weight_filler {
      type: "xavier"
    }
  }
}
layer {
  name: "inc2/inception_3b/double3x3a/bn"
  type: "BN"
  bottom: "inc2/inception_3b/double3x3a"
  top: "inc2/inception_3b/double3x3a/bn"
  param {
    lr_mult: 1.0
    decay_mult: 0.0
  }
  param {
    lr_mult: 1.0
    decay_mult: 0.0
  }
  bn_param {
    scale_filler {
      type: "constant"
      value: 1.0
    }
    shift_filler {
      type: "constant"
      value: 0.0
    }
  }
}
layer {
  name: "inc2/inception_3b/relu_double3x3a"
  type: "ReLU"
  bottom: "inc2/inception_3b/double3x3a/bn"
  top: "inc2/inception_3b/double3x3a/bn"
}
layer {
  name: "inc2/inception_3b/double3x3b"
  type: "Convolution"
  bottom: "inc2/inception_3b/double3x3a/bn"
  top: "inc2/inception_3b/double3x3b"
  param {
    lr_mult: 1.0
    decay_mult: 1.0
  }
  convolution_param {
    num_output: 96
    bias_term: false
    pad: 1
    kernel_size: 3
    weight_filler {
      type: "xavier"
    }
  }
}
layer {
  name: "inc2/inception_3b/double3x3b/bn"
  type: "BN"
  bottom: "inc2/inception_3b/double3x3b"
  top: "inc2/inception_3b/double3x3b/bn"
  param {
    lr_mult: 1.0
    decay_mult: 0.0
  }
  param {
    lr_mult: 1.0
    decay_mult: 0.0
  }
  bn_param {
    scale_filler {
      type: "constant"
      value: 1.0
    }
    shift_filler {
      type: "constant"
      value: 0.0
    }
  }
}
layer {
  name: "inc2/inception_3b/relu_double3x3b"
  type: "ReLU"
  bottom: "inc2/inception_3b/double3x3b/bn"
  top: "inc2/inception_3b/double3x3b/bn"
}
layer {
  name: "inc2/inception_3b/pool"
  type: "Pooling"
  bottom: "inc2/inception_3a/output"
  top: "inc2/inception_3b/pool"
  pooling_param {
    pool: AVE
    kernel_size: 3
    stride: 1
    pad: 1
  }
}
layer {
  name: "inc2/inception_3b/pool_proj"
  type: "Convolution"
  bottom: "inc2/inception_3b/pool"
  top: "inc2/inception_3b/pool_proj"
  param {
    lr_mult: 1.0
    decay_mult: 1.0
  }
  convolution_param {
    num_output: 64
    bias_term: false
    kernel_size: 1
    weight_filler {
      type: "xavier"
    }
  }
}
layer {
  name: "inc2/inception_3b/pool_proj/bn"
  type: "BN"
  bottom: "inc2/inception_3b/pool_proj"
  top: "inc2/inception_3b/pool_proj/bn"
  param {
    lr_mult: 1.0
    decay_mult: 0.0
  }
  param {
    lr_mult: 1.0
    decay_mult: 0.0
  }
  bn_param {
    scale_filler {
      type: "constant"
      value: 1.0
    }
    shift_filler {
      type: "constant"
      value: 0.0
    }
  }
}
layer {
  name: "inc2/inception_3b/relu_pool_proj"
  type: "ReLU"
  bottom: "inc2/inception_3b/pool_proj/bn"
  top: "inc2/inception_3b/pool_proj/bn"
}
layer {
  name: "inc2/inception_3b/output"
  type: "Concat"
  bottom: "inc2/inception_3b/1x1/bn"
  bottom: "inc2/inception_3b/3x3/bn"
  bottom: "inc2/inception_3b/double3x3b/bn"
…
      type: "constant"
      value: 1.0
    }
    shift_filler {
      type: "constant"
      value: 0.0
    }
  }
}
layer {
  name: "inc2/inception_3c/relu_3x3_reduce"
  type: "ReLU"
  bottom: "inc2/inception_3c/3x3_reduce/bn"
  top: "inc2/inception_3c/3x3_reduce/bn"
}
layer {
  name: "inc2/inception_3c/3x3"
  type: "Convolution"
  bottom: "inc2/inception_3c/3x3_reduce/bn"
  top: "inc2/inception_3c/3x3"
  param {
    lr_mult: 1.0
    decay_mult: 1.0
  }
  convolution_param {
    num_output: 160
    bias_term: false
    pad: 1
    kernel_size: 3
    stride: 2
    weight_filler {
      type: "xavier"
    }
  }
}
layer {
  name: "inc2/inception_3c/3x3/bn"
  type: "BN"
  bottom: "inc2/inception_3c/3x3"
  top: "inc2/inception_3c/3x3/bn"
  param {
    lr_mult: 1.0
    decay_mult: 0.0
  }
  param {
    lr_mult: 1.0
    decay_mult: 0.0
  }
  bn_param {
    scale_filler {
      type: "constant"
      value: 1.0
    }
    shift_filler {
      type: "constant"
      value: 0.0
    }
  }
}
layer {
  name: "inc2/inception_3c/relu_3x3"
  type: "ReLU"
  bottom: "inc2/inception_3c/3x3/bn"
  top: "inc2/inception_3c/3x3/bn"
}
layer {
  name: "inc2/inception_3c/double3x3_reduce"
  type: "Convolution"
  bottom: "inc2/inception_3b/output"
  top: "inc2/inception_3c/double3x3_reduce"
  param {
    lr_mult: 1.0
    decay_mult: 1.0
  }
  convolution_param {
    num_output: 64
    bias_term: false
    kernel_size: 1
    weight_filler {
      type: "xavier"
    }
  }
}
layer {
  name: "inc2/inception_3c/double3x3_reduce/bn"
  type: "BN"
  bottom: "inc2/inception_3c/double3x3_reduce"
  top: "inc2/inception_3c/double3x3_reduce/bn"
  param {
    lr_mult: 1.0
    decay_mult: 0.0
  }
  param {
    lr_mult: 1.0
    decay_mult: 0.0
  }
  bn_param {
    scale_filler {
      type: "constant"
      value: 1.0
    }
    shift_filler {
      type: "constant"
      value: 0.0
    }
  }
}
layer {
  name: "inc2/inception_3c/relu_double3x3_reduce"
  type: "ReLU"
  bottom: "inc2/inception_3c/double3x3_reduce/bn"
  top: "inc2/inception_3c/double3x3_reduce/bn"
}
layer {
  name: "inc2/inception_3c/double3x3a"
  type: "Convolution"
  bottom: "inc2/inception_3c/double3x3_reduce/bn"
  top: "inc2/inception_3c/double3x3a"
  param {
    lr_mult: 1.0
    decay_mult: 1.0
  }
  convolution_param {
    num_output: 96
    bias_term: false
    pad: 1
    kernel_size: 3
    weight_filler {
      type: "xavier"
    }
  }
}
layer {
  name: "inc2/inception_3c/double3x3a/bn"
  type: "BN"
  bottom: "inc2/inception_3c/double3x3a"
  top: "inc2/inception_3c/double3x3a/bn"
  param {
    lr_mult: 1.0
    decay_mult: 0.0
  }
  param {
    lr_mult: 1.0
    decay_mult: 0.0
  }
  bn_param {
    scale_filler {
      type: "constant"
      value: 1.0
    }
    shift_filler {
      type: "constant"
      value: 0.0
    }
  }
}
layer {
  name: "inc2/inception_3c/relu_double3x3a"
  type: "ReLU"
  bottom: "inc2/inception_3c/double3x3a/bn"
  top: "inc2/inception_3c/double3x3a/bn"
}
layer {
  name: "inc2/inception_3c/double3x3b"
  type: "Convolution"
  bottom: "inc2/inception_3c/double3x3a/bn"
  top: "inc2/inception_3c/double3x3b"
  param {
    lr_mult: 1.0
    decay_mult: 1.0
  }
  convolution_param {
    num_output: 96
    bias_term: false
    pad: 1
    kernel_size: 3
    stride: 2
    weight_filler {
      type: "xavier"
    }
  }
}
layer {
  name: "inc2/inception_3c/double3x3b/bn"
  type: "BN"
  bottom: "inc2/inception_3c/double3x3b"
  top: "inc2/inception_3c/double3x3b/bn"
  param {
    lr_mult: 1.0
    decay_mult: 0.0
  }
  param {
    lr_mult: 1.0
    decay_mult: 0.0
  }
  bn_param {
    scale_filler {
      type: "constant"
      value: 1.0
    }
    shift_filler {
      type: "constant"
      value: 0.0
    }
  }
}
layer {
  name: "inc2/inception_3c/relu_double3x3b"
  type: "ReLU"
  bottom: "inc2/inception_3c/double3x3b/bn"
  top: "inc2/inception_3c/double3x3b/bn"
}
layer {
  name: "inc2/inception_3c/pool/3x3_s2"
  type: "Pooling"
  bottom: "inc2/inception_3b/output"
  top: "inc2/inception_3c/pool/3x3_s2"
  pooling_param {
    pool: MAX
    kernel_size: 3
    stride: 2
  }
}
layer {
  name: "inc2/inception_3c/output"
  type: "Concat"
  bottom: "inc2/inception_3c/3x3/bn"
  bottom: "inc2/inception_3c/double3x3b/bn"
  bottom: "inc2/inception_3c/pool/3x3_s2"
  top: "inc2/inception_3c/output"
}
layer {
  name: "inc2/inception_4a/1x1"
  type: "Convolution"
  bottom: "inc2/inception_3c/output"
  top: "inc2/inception_4a/1x1"
  param {
    lr_mult: 1.0
    decay_mult: 1.0
  }
  convolution_param {
    num_output: 224
    bias_term: false
    kernel_size: 1
    weight_filler {
      type: "xavier"
    }
  }
}
layer {
  name: "inc2/inception_4a/1x1/bn"
  type: "BN"
  bottom: "inc2/inception_4a/1x1"
  top: "inc2/inception_4a/1x1/bn"
  param {
    lr_mult: 1.0
    decay_mult: 0.0
  }
  param {
    lr_mult: 1.0
    decay_mult: 0.0
  }
  bn_param {
    scale_filler {
      type: "constant"
      value: 1.0
    }
    shift_filler {
      type: "constant"
      value: 0.0
    }
  }
}
layer {
  name: "inc2/inception_4a/relu_1x1"
  type: "ReLU"
  bottom: "inc2/inception_4a/1x1/bn"
  top: "inc2/inception_4a/1x1/bn"
}
layer {
  name: "inc2/inception_4a/3x3_reduce"
  type: "Convolution"
  bottom: "inc2/inception_3c/output"
  top: "inc2/inception_4a/3x3_reduce"
  param {
    lr_mult: 1.0
    decay_mult: 1.0
  }
  convolution_param {
    num_output: 64
    bias_term: false
    kernel_size: 1
    weight_filler {
      type: "xavier"
    }
  }
}
layer {
  name: "inc2/inception_4a/3x3_reduce/bn"
  type: "BN"
  bottom: "inc2/inception_4a/3x3_reduce"
  top: "inc2/inception_4a/3x3_reduce/bn"
  param {
    lr_mult: 1.0
    decay_mult: 0.0
  }
  param {
    lr_mult: 1.0
    decay_mult: 0.0
  }
  bn_param {
    scale_filler {
      type: "constant"
      value: 1.0
    }
    shift_filler {
      type: "constant"
      value: 0.0
    }
  }
}
layer {
  name: "inc2/inception_4a/relu_3x3_reduce"
  type: "ReLU"
  bottom: "inc2/inception_4a/3x3_reduce/bn"
  top: "inc2/inception_4a/3x3_reduce/bn"
}
layer {
  name: "inc2/inception_4a/3x3"
  type: "Convolution"
  bottom: "inc2/inception_4a/3x3_reduce/bn"
  top: "inc2/inception_4a/3x3"
  param {
    lr_mult: 1.0
    decay_mult: 1.0
  }
  convolution_param {
    num_output: 96
    bias_term: false
    pad: 1
    kernel_size: 3
    weight_filler {
      type: "xavier"
    }
  }
}
layer {
  name: "inc2/inception_4a/3x3/bn"
  type: "BN"
  bottom: "inc2/inception_4a/3x3"
  top: "inc2/inception_4a/3x3/bn"
  param {
    lr_mult: 1.0
    decay_mult: 0.0
  }
  param {
    lr_mult: 1.0
    decay_mult: 0.0
  }
  bn_param {
    scale_filler {
      type: "constant"
      value: 1.0
    }
    shift_filler {
      type: "constant"
      value: 0.0
    }
  }
}
layer {
  name: "inc2/inception_4a/relu_3x3"
  type: "ReLU"
  bottom: "inc2/inception_4a/3x3/bn"
  top: "inc2/inception_4a/3x3/bn"
}
layer {
  name: "inc2/inception_4a/double3x3_reduce"
  type: "Convolution"
  bottom: "inc2/inception_3c/output"
  top: "inc2/inception_4a/double3x3_reduce"
  param {
    lr_mult: 1.0
    decay_mult: 1.0
  }
  convolution_param {
    num_output: 96
    bias_term: false
    kernel_size: 1
    weight_filler {
      type: "xavier"
    }
  }
}
layer {
  name: "inc2/inception_4a/double3x3_reduce/bn"
  type: "BN"
  bottom: "inc2/inception_4a/double3x3_reduce"
  top: "inc2/inception_4a/double3x3_reduce/bn"
  param {
    lr_mult: 1.0
    decay_mult: 0.0
  }
  param {
    lr_mult: 1.0
    decay_mult: 0.0
  }
  bn_param {
    scale_filler {
      type: "constant"
      value: 1.0
    }
    shift_filler {
      type: "constant"
      value: 0.0
    }
  }
}
layer {
  name: "inc2/inception_4a/relu_double3x3_reduce"
  type: "ReLU"
  bottom: "inc2/inception_4a/double3x3_reduce/bn"
  top: "inc2/inception_4a/double3x3_reduce/bn"
}
layer {
  name: "inc2/inception_4a/double3x3a"
  type: "Convolution"
  bottom: "inc2/inception_4a/double3x3_reduce/bn"
  top: "inc2/inception_4a/double3x3a"
  param {
    lr_mult: 1.0
    decay_mult: 1.0
  }
  convolution_param {
    num_output: 128
    bias_term: false
    pad: 1
    kernel_size: 3
    weight_filler {
      type: "xavier"
    }
  }
}
layer {
  name: "inc2/inception_4a/double3x3a/bn"
  type: "BN"
  bottom: "inc2/inception_4a/double3x3a"
  top: "inc2/inception_4a/double3x3a/bn"
  param {
    lr_mult: 1.0
    decay_mult: 0.0
  }
  param {
    lr_mult: 1.0
    decay_mult: 0.0
  }
  bn_param {
    scale_filler {
      type: "constant"
      value: 1.0
    }
    shift_filler {
      type: "constant"
      value: 0.0
    }
  }
}
layer {
  name: "inc2/inception_4a/relu_double3x3a"
  type: "ReLU"
  bottom: "inc2/inception_4a/double3x3a/bn"
  top: "inc2/inception_4a/double3x3a/bn"
}
layer {
  name: "inc2/inception_4a/double3x3b"
  type: "Convolution"
  bottom: "inc2/inception_4a/double3x3a/bn"
  top: "inc2/inception_4a/double3x3b"
  param {
    lr_mult: 1.0
    decay_mult: 1.0
  }
  convolution_param {
    num_output: 128
    bias_term: false
    pad: 1
    kernel_size: 3
    weight_filler {
      type: "xavier"
    }
  }
}
layer {
  name: "inc2/inception_4a/double3x3b/bn"
  type: "BN"
  bottom: "inc2/inception_4a/double3x3b"
  top: "inc2/inception_4a/double3x3b/bn"
  param {
    lr_mult: 1.0
    decay_mult: 0.0
  }
  param {
    lr_mult: 1.0
    decay_mult: 0.0
  }
  bn_param {
    scale_filler {
      type: "constant"
      value: 1.0
    }
    shift_filler {
      type: "constant"
      value: 0.0
    }
  }
}
layer {
  name: "inc2/inception_4a/relu_double3x3b"
  type: "ReLU"
  bottom: "inc2/inception_4a/double3x3b/bn"
  top: "inc2/inception_4a/double3x3b/bn"
}
layer {
  name: "inc2/inception_4a/pool"
  type: "Pooling"
  bottom: "inc2/inception_3c/output"
  top: "inc2/inception_4a/pool"
  pooling_param {
    pool: AVE
    kernel_size: 3
    stride: 1
    pad: 1
  }
}
layer {
  name: "inc2/inception_4a/pool_proj"
  type: "Convolution"
  bottom: "inc2/inception_4a/pool"
  top: "inc2/inception_4a/pool_proj"
  param {
    lr_mult: 1.0
    decay_mult: 1.0
  }
  convolution_param {
    num_output: 128
    bias_term: false
    kernel_size: 1
    weight_filler {
      type: "xavier"
    }
  }
}
layer {
  name: "inc2/inception_4a/pool_proj/bn"
  type: "BN"
  bottom: "inc2/inception_4a/pool_proj"
  top: "inc2/inception_4a/pool_proj/bn"
  param {
    lr_mult: 1.0
    decay_mult: 0.0
  }
  param {
    lr_mult: 1.0
    decay_mult: 0.0
  }
  bn_param {
    scale_filler {
      type: "constant"
      value: 1.0
    }
    shift_filler {
      type: "constant"
      value: 0.0
    }
  }
}
layer {
  name: "inc2/inception_4a/relu_pool_proj"
  type: "ReLU"
  bottom: "inc2/inception_4a/pool_proj/bn"
  top: "inc2/inception_4a/pool_proj/bn"
}
layer {
  name: "inc2/inception_4a/output"
  type: "Concat"
  bottom: "inc2/inception_4a/1x1/bn"
  bottom: "inc2/inception_4a/3x3/bn"
  bottom: "inc2/inception_4a/double3x3b/bn"
  bottom: "inc2/inception_4a/pool_proj/bn"
  top: "inc2/inception_4a/output"
}
layer {
  name: "inc2/inception_4b/1x1"
  type: "Convolution"
  bottom: "inc2/inception_4a/output"
  top: "inc2/inception_4b/1x1"
  param {
    lr_mult: 1.0
    decay_mult: 1.0
  }
  convolution_param {
    num_output: 192
    bias_term: false
    kernel_size: 1
    weight_filler {
      type: "xavier"
    }
  }
}
layer {
  name: "inc2/inception_4b/1x1/bn"
  type: "BN"
  bottom: "inc2/inception_4b/1x1"
  top: "inc2/inception_4b/1x1/bn"
  param {
    lr_mult: 1.0
    decay_mult: 0.0
  }
  param {
    lr_mult: 1.0
    decay_mult: 0.0
  }
  bn_param {
    scale_filler {
      type: "constant"
      value: 1.0
    }
    shift_filler {
      type: "constant"
      value: 0.0
    }
  }
}
layer {
  name: "inc2/inception_4b/relu_1x1"
  type: "ReLU"
  bottom: "inc2/inception_4b/1x1/bn"
  top: "inc2/inception_4b/1x1/bn"
}
layer {
  name: "inc2/inception_4b/3x3_reduce"
  type: "Convolution"
  bottom: "inc2/inception_4a/output"
  top: "inc2/inception_4b/3x3_reduce"
  param {
    lr_mult: 1.0
    decay_mult: 1.0
  }
  convolution_param {
    num_output: 96
    bias_term: false
    kernel_size: 1
    weight_filler {
      type: "xavier"
    }
  }
}
layer {
  name: "inc2/inception_4b/3x3_reduce/bn"
  type: "BN"
  bottom: "inc2/inception_4b/3x3_reduce"
  top: "inc2/inception_4b/3x3_reduce/bn"
  param {
    lr_mult: 1.0
    decay_mult: 0.0
  }
  param {
    lr_mult: 1.0
    decay_mult: 0.0
  }
  bn_param {
    scale_filler {
      type: "constant"
      value: 1.0
    }
    shift_filler {
      type: "constant"
      value: 0.0
    }
  }
}
layer {
  name: "inc2/inception_4b/relu_3x3_reduce"
  type: "ReLU"
  bottom: "inc2/inception_4b/3x3_reduce/bn"
  top: "inc2/inception_4b/3x3_reduce/bn"
}
layer {
  name: "inc2/inception_4b/3x3"
  type: "Convolution"
  bottom: "inc2/inception_4b/3x3_reduce/bn"
  top: "inc2/inception_4b/3x3"
  param {
    lr_mult: 1.0
    decay_mult: 1.0
  }
  convolution_param {
    num_output: 128
    bias_term: false
    pad: 1
    kernel_size: 3
    weight_filler {
      type: "xavier"
    }
  }
}
layer {
  name: "inc2/inception_4b/3x3/bn"
  type: "BN"
  bottom: "inc2/inception_4b/3x3"
  top: "inc2/inception_4b/3x3/bn"
  param {
    lr_mult: 1.0
    decay_mult: 0.0
  }
  param {
    lr_mult: 1.0
    decay_mult: 0.0
  }
  bn_param {
    scale_filler {
      type: "constant"
      value: 1.0
    }
    shift_filler {
      type: "constant"
      value: 0.0
    }
  }
}
layer {
  name: "inc2/inception_4b/relu_3x3"
  type: "ReLU"
  bottom: "inc2/inception_4b/3x3/bn"
  top: "inc2/inception_4b/3x3/bn"
}
layer {
  name: "inc2/inception_4b/double3x3_reduce"
  type: "Convolution"
  bottom: "inc2/inception_4a/output"
  top: "inc2/inception_4b/double3x3_reduce"
  param {
    lr_mult: 1.0
    decay_mult: 1.0
  }
  convolution_param {
    num_output: 96
    bias_term: false
    kernel_size: 1
    weight_filler {
      type: "xavier"
    }
  }
}
layer {
  name: "inc2/inception_4b/double3x3_reduce/bn"
  type: "BN"
  bottom: "inc2/inception_4b/double3x3_reduce"
  top: "inc2/inception_4b/double3x3_reduce/bn"
  param {
    lr_mult: 1.0
    decay_mult: 0.0
  }
  param {
    lr_mult: 1.0
    decay_mult: 0.0
  }
  bn_param {
    scale_filler {
      type: "constant"
      value: 1.0
    }
    shift_filler {
      type: "constant"
      value: 0.0
    }
  }
}
layer {
  name: "inc2/inception_4b/relu_double3x3_reduce"
  type: "ReLU"
  bottom: "inc2/inception_4b/double3x3_reduce/bn"
  top: "inc2/inception_4b/double3x3_reduce/bn"
}
layer {
  name: "inc2/inception_4b/double3x3a"
  type: "Convolution"
  bottom: "inc2/inception_4b/double3x3_reduce/bn"
  top: "inc2/inception_4b/double3x3a"
  param {
    lr_mult: 1.0
    decay_mult: 1.0
  }
  convolution_param {
    num_output: 128
    bias_term: false
    pad: 1
    kernel_size: 3
    weight_filler {
      type: "xavier"
    }
  }
}
layer {
  name: "inc2/inception_4b/double3x3a/bn"
  type: "BN"
  bottom: "inc2/inception_4b/double3x3a"
  top: "inc2/inception_4b/double3x3a/bn"
  param {
    lr_mult: 1.0
    decay_mult: 0.0
  }
  param {
    lr_mult: 1.0
    decay_mult: 0.0
  }
  bn_param {
    scale_filler {
      type: "constant"
      value: 1.0
    }
    shift_filler {
      type: "constant"
      value: 0.0
    }
  }
}
layer {
  name: "inc2/inception_4b/relu_double3x3a"
  type: "ReLU"
  bottom: "inc2/inception_4b/double3x3a/bn"
  top: "inc2/inception_4b/double3x3a/bn"
}
layer {
  name: "inc2/inception_4b/double3x3b"
  type: "Convolution"
  bottom: "inc2/inception_4b/double3x3a/bn"
  top: "inc2/inception_4b/double3x3b"
  param {
    lr_mult: 1.0
    decay_mult: 1.0
  }
  convolution_param {
    num_output: 128
    bias_term: false
    pad: 1
    kernel_size: 3
    weight_filler {
      type: "xavier"
    }
  }
}
layer {
  name: "inc2/inception_4b/double3x3b/bn"
  type: "BN"
  bottom: "inc2/inception_4b/double3x3b"
  top: "inc2/inception_4b/double3x3b/bn"
  param {
    lr_mult: 1.0
    decay_mult: 0.0
  }
  param {
    lr_mult: 1.0
    decay_mult: 0.0
  }
  bn_param {
    scale_filler {
      type: "constant"
      value: 1.0
    }
    shift_filler {
      type: "constant"
      value: 0.0
    }
  }
}
layer {
  name: "inc2/inception_4b/relu_double3x3b"
  type: "ReLU"
  bottom: "inc2/inception_4b/double3x3b/bn"
  top: "inc2/inception_4b/double3x3b/bn"
}
layer {
  name: "inc2/inception_4b/pool"
  type: "Pooling"
  bottom: "inc2/inception_4a/output"
  top: "inc2/inception_4b/pool"
  pooling_param {
    pool: AVE
    kernel_size: 3
    stride: 1
    pad: 1
  }
}
layer {
  name: "inc2/inception_4b/pool_proj"
  type: "Convolution"
  bottom: "inc2/inception_4b/pool"
  top: "inc2/inception_4b/pool_proj"
  param {
    lr_mult: 1.0
    decay_mult: 1.0
  }
  convolution_param {
    num_output: 128
    bias_term: false
    kernel_size: 1
    weight_filler {
      type: "xavier"
    }
  }
}
layer {
  name: "inc2/inception_4b/pool_proj/bn"
  type: "BN"
  bottom: "inc2/inception_4b/pool_proj"
  top: "inc2/inception_4b/pool_proj/bn"
  param {
    lr_mult: 1.0
    decay_mult: 0.0
  }
  param {
    lr_mult: 1.0
    decay_mult: 0.0
  }
  bn_param {
    scale_filler {
      type: "constant"
      value: 1.0
    }
    shift_filler {
      type: "constant"
      value: 0.0
    }
  }
}
layer {
  name: "inc2/inception_4b/relu_pool_proj"
  type: "ReLU"
  bottom: "inc2/inception_4b/pool_proj/bn"
  top: "inc2/inception_4b/pool_proj/bn"
}
layer {
  name: "inc2/inception_4b/output"
  type: "Concat"
  bottom: "inc2/inception_4b/1x1/bn"
  bottom: "inc2/inception_4b/3x3/bn"
  bottom: "inc2/inception_4b/double3x3b/bn"
  bottom: "inc2/inception_4b/pool_proj/bn"
  top: "inc2/inception_4b/output"
}
layer {
  name: "inc2/inception_4c/1x1"
  type: "Convolution"
  bottom: "inc2/inception_4b/output"
  top: "inc2/inception_4c/1x1"
  param {
    lr_mult: 1.0
    decay_mult: 1.0
  }
  convolution_param {
    num_output: 160
    bias_term: false
    kernel_size: 1
    weight_filler {
      type: "xavier"
    }
  }
}
layer {
  name: "inc2/inception_4c/1x1/bn"
  type: "BN"
  bottom: "inc2/inception_4c/1x1"
  top: "inc2/inception_4c/1x1/bn"
  param {
    lr_mult: 1.0
    decay_mult: 0.0
  }
  param {
    lr_mult: 1.0
    decay_mult: 0.0
  }
  bn_param {
    scale_filler {
      type: "constant"
      value: 1.0
    }
    shift_filler {
      type: "constant"
      value: 0.0
    }
  }
}
layer {
  name: "inc2/inception_4c/relu_1x1"
  type: "ReLU"
  bottom: "inc2/inception_4c/1x1/bn"
  top: "inc2/inception_4c/1x1/bn"
}
layer {
  name: "inc2/inception_4c/3x3_reduce"
  type: "Convolution"
  bottom: "inc2/inception_4b/output"
  top: "inc2/inception_4c/3x3_reduce"
  param {
    lr_mult: 1.0
    decay_mult: 1.0
  }
  convolution_param {
    num_output: 128
    bias_term: false
    kernel_size: 1
    weight_filler {
      type: "xavier"
    }
  }
}
layer {
  name: "inc2/inception_4c/3x3_reduce/bn"
  type: "BN"
  bottom: "inc2/inception_4c/3x3_reduce"
  top: "inc2/inception_4c/3x3_reduce/bn"
  param {
    lr_mult: 1.0
    decay_mult: 0.0
  }
  param {
    lr_mult: 1.0
    decay_mult: 0.0
  }
  bn_param {
    scale_filler {
      type: "constant"
      value: 1.0
    }
    shift_filler {
      type: "constant"
      value: 0.0
    }
  }
}
layer {
  name: "inc2/inception_4c/relu_3x3_reduce"
  type: "ReLU"
  bottom: "inc2/inception_4c/3x3_reduce/bn"
  top: "inc2/inception_4c/3x3_reduce/bn"
}
layer {
  name: "inc2/inception_4c/3x3"
  type: "Convolution"
  bottom: "inc2/inception_4c/3x3_reduce/bn"
  top: "inc2/inception_4c/3x3"
  param {
    lr_mult: 1.0
    decay_mult: 1.0
  }
  convolution_param {
    num_output: 160
    bias_term: false
    pad: 1
    kernel_size: 3
    weight_filler {
      type: "xavier"
    }
  }
}
layer {
  name: "inc2/inception_4c/3x3/bn"
  type: "BN"
  bottom: "inc2/inception_4c/3x3"
  top: "inc2/inception_4c/3x3/bn"
  param {
    lr_mult: 1.0
    decay_mult: 0.0
  }
  param {
    lr_mult: 1.0
    decay_mult: 0.0
  }
  bn_param {
    scale_filler {
      type: "constant"
      value: 1.0
    }
    shift_filler {
      type: "constant"
      value: 0.0
    }
  }
}
layer {
  name: "inc2/inception_4c/relu_3x3"
  type: "ReLU"
  bottom: "inc2/inception_4c/3x3/bn"
  top: "inc2/inception_4c/3x3/bn"
}
layer {
  name: "inc2/inception_4c/double3x3_reduce"
  type: "Convolution"
  bottom: "inc2/inception_4b/output"
  top: "inc2/inception_4c/double3x3_reduce"
  param {
    lr_mult: 1.0
    decay_mult: 1.0
  }
  convolution_param {
    num_output: 128
    bias_term: false
    kernel_size: 1
    weight_filler {
      type: "xavier"
    }
  }
}
layer {
  name: "inc2/inception_4c/double3x3_reduce/bn"
  type: "BN"
  bottom: "inc2/inception_4c/double3x3_reduce"
  top: "inc2/inception_4c/double3x3_reduce/bn"
  param {
    lr_mult: 1.0
    decay_mult: 0.0
  }
  param {
    lr_mult: 1.0
    decay_mult: 0.0
  }
  bn_param {
    scale_filler {
      type: "constant"
      value: 1.0
    }
    shift_filler {
      type: "constant"
      value: 0.0
    }
  }
}
layer {
  name: "inc2/inception_4c/relu_double3x3_reduce"
  type: "ReLU"
  bottom: "inc2/inception_4c/double3x3_reduce/bn"
  top: "inc2/inception_4c/double3x3_reduce/bn"
}
layer {
  name: "inc2/inception_4c/double3x3a"
  type: "Convolution"
  bottom: "inc2/inception_4c/double3x3_reduce/bn"
  top: "inc2/inception_4c/double3x3a"
  param {
    lr_mult: 1.0
    decay_mult: 1.0
  }
  convolution_param {
    num_output: 160
    bias_term: false
    pad: 1
    kernel_size: 3
    weight_filler {
      type: "xavier"
    }
  }
}
layer {
  name: "inc2/inception_4c/double3x3a/bn"
  type: "BN"
  bottom: "inc2/inception_4c/double3x3a"
  top: "inc2/inception_4c/double3x3a/bn"
  param {
    lr_mult: 1.0
    decay_mult: 0.0
  }
  param {
    lr_mult: 1.0
    decay_mult: 0.0
  }
  bn_param {
    scale_filler {
      type: "constant"
      value: 1.0
    }
    shift_filler {
      type: "constant"
      value: 0.0
    }
  }
}
layer {
  name: "inc2/inception_4c/relu_double3x3a"
  type: "ReLU"
  bottom: "inc2/inception_4c/double3x3a/bn"
  top: "inc2/inception_4c/double3x3a/bn"
}
layer {
  name: "inc2/inception_4c/double3x3b"
  type: "Convolution"
  bottom: "inc2/inception_4c/double3x3a/bn"
  top: "inc2/inception_4c/double3x3b"
  param {
    lr_mult: 1.0
    decay_mult: 1.0
  }
  convolution_param {
    num_output: 160
    bias_term: false
    pad: 1
    kernel_size: 3
    weight_filler {
      type: "xavier"
    }
  }
}
layer {
  name: "inc2/inception_4c/double3x3b/bn"
  type: "BN"
  bottom: "inc2/inception_4c/double3x3b"
  top: "inc2/inception_4c/double3x3b/bn"
  param {
    lr_mult: 1.0
    decay_mult: 0.0
  }
  param {
    lr_mult: 1.0
    decay_mult: 0.0
  }
  bn_param {
    scale_filler {
      type: "constant"
      value: 1.0
    }
    shift_filler {
      type: "constant"
      value: 0.0
    }
  }
}
layer {
  name: "inc2/inception_4c/relu_double3x3b"
  type: "ReLU"
  bottom: "inc2/inception_4c/double3x3b/bn"
  top: "inc2/inception_4c/double3x3b/bn"
}
layer {
  name: "inc2/inception_4c/pool"
  type: "Pooling"
  bottom: "inc2/inception_4b/output"
  top: "inc2/inception_4c/pool"
  pooling_param {
    pool: AVE
    kernel_size: 3
    stride: 1
    pad: 1
  }
}
layer {
  name: "inc2/inception_4c/pool_proj"
  type: "Convolution"
  bottom: "inc2/inception_4c/pool"
  top: "inc2/inception_4c/pool_proj"
  param {
    lr_mult: 1.0
    decay_mult: 1.0
  }
  convolution_param {
    num_output: 128
    bias_term: false
    kernel_size: 1
    weight_filler {
      type: "xavier"
    }
  }
}
layer {
  name: "inc2/inception_4c/pool_proj/bn"
  type: "BN"
  bottom: "inc2/inception_4c/pool_proj"
  top: "inc2/inception_4c/pool_proj/bn"
  param {
    lr_mult: 1.0
    decay_mult: 0.0
  }
  param {
    lr_mult: 1.0
    decay_mult: 0.0
  }
  bn_param {
    scale_filler {
      type: "constant"
      value: 1.0
    }
    shift_filler {
      type: "constant"
      value: 0.0
    }
  }
}
layer {
  name: "inc2/inception_4c/relu_pool_proj"
  type: "ReLU"
  bottom: "inc2/inception_4c/pool_proj/bn"
  top: "inc2/inception_4c/pool_proj/bn"
}
layer {
  name: "inc2/inception_4c/output"
  type: "Concat"
  bottom: "inc2/inception_4c/1x1/bn"
  bottom: "inc2/inception_4c/3x3/bn"
  bottom: "inc2/inception_4c/double3x3b/bn"
  bottom: "inc2/inception_4c/pool_proj/bn"
  top: "inc2/inception_4c/output"
}
layer {
  name: "inc2/inception_4d/1x1"
  type: "Convolution"
  bottom: "inc2/inception_4c/output"
  top: "inc2/inception_4d/1x1"
  param {
    lr_mult: 1.0
    decay_mult: 1.0
  }
  convolution_param {
    num_output: 96
    bias_term: false
    kernel_size: 1
    weight_filler {
      type: "xavier"
    }
  }
}
layer {
  name: "inc2/inception_4d/1x1/bn"
  type: "BN"
  bottom: "inc2/inception_4d/1x1"
  top: "inc2/inception_4d/1x1/bn"
  param {
    lr_mult: 1.0
    decay_mult: 0.0
  }
  param {
    lr_mult: 1.0
    decay_mult: 0.0
  }
  bn_param {
    scale_filler {
      type: "constant"
      value: 1.0
    }
    shift_filler {
      type: "constant"
      value: 0.0
    }
  }
}
layer {
  name: "inc2/inception_4d/relu_1x1"
  type: "ReLU"
  bottom: "inc2/inception_4d/1x1/bn"
  top: "inc2/inception_4d/1x1/bn"
}
layer {
  name: "inc2/inception_4d/3x3_reduce"
  type: "Convolution"
  bottom: "inc2/inception_4c/output"
  top: "inc2/inception_4d/3x3_reduce"
  param {
    lr_mult: 1.0
    decay_mult: 1.0
  }
  convolution_param {
    num_output: 128
    bias_term: false
    kernel_size: 1
    weight_filler {
      type: "xavier"
    }
  }
}
layer {
  name: "inc2/inception_4d/3x3_reduce/bn"
  type: "BN"
  bottom: "inc2/inception_4d/3x3_reduce"
  top: "inc2/inception_4d/3x3_reduce/bn"
  param {
    lr_mult: 1.0
    decay_mult: 0.0
  }
  param {
    lr_mult: 1.0
    decay_mult: 0.0
  }
  bn_param {
    scale_filler {
      type: "constant"
      value: 1.0
    }
    shift_filler {
      type: "constant"
      value: 0.0
    }
  }
}
layer {
  name: "inc2/inception_4d/relu_3x3_reduce"
  type: "ReLU"
  bottom: "inc2/inception_4d/3x3_reduce/bn"
  top: "inc2/inception_4d/3x3_reduce/bn"
}
layer {
  name: "inc2/inception_4d/3x3"
  type: "Convolution"
  bottom: "inc2/inception_4d/3x3_reduce/bn"
  top: "inc2/inception_4d/3x3"
  param {
    lr_mult: 1.0
    decay_mult: 1.0
  }
  convolution_param {
    num_output: 192
    bias_term: false
    pad: 1
    kernel_size: 3
    weight_filler {
      type: "xavier"
    }
  }
}
layer {
  name: "inc2/inception_4d/3x3/bn"
  type: "BN"
  bottom: "inc2/inception_4d/3x3"
  top: "inc2/inception_4d/3x3/bn"
  param {
    lr_mult: 1.0
    decay_mult: 0.0
  }
  param {
    lr_mult: 1.0
    decay_mult: 0.0
  }
  bn_param {
    scale_filler {
      type: "constant"
      value: 1.0
    }
    shift_filler {
      type: "constant"
      value: 0.0
    }
  }
}
layer {
  name: "inc2/inception_4d/relu_3x3"
  type: "ReLU"
  bottom: "inc2/inception_4d/3x3/bn"
  top: "inc2/inception_4d/3x3/bn"
}
layer {
  name: "inc2/inception_4d/double3x3_reduce"
  type: "Convolution"
  bottom: "inc2/inception_4c/output"
  top: "inc2/inception_4d/double3x3_reduce"
  param {
    lr_mult: 1.0
    decay_mult: 1.0
  }
  convolution_param {
    num_output: 160
    bias_term: false
    kernel_size: 1
    weight_filler {
      type: "xavier"
    }
  }
}
layer {
  name: "inc2/inception_4d/double3x3_reduce/bn"
  type: "BN"
  bottom: "inc2/inception_4d/double3x3_reduce"
  top: "inc2/inception_4d/double3x3_reduce/bn"
  param {
    lr_mult: 1.0
    decay_mult: 0.0
  }
  param {
    lr_mult: 1.0
    decay_mult: 0.0
  }
  bn_param {
    scale_filler {
      type: "constant"
      value: 1.0
    }
    shift_filler {
      type: "constant"
      value: 0.0
    }
  }
}
layer {
  name: "inc2/inception_4d/relu_double3x3_reduce"
  type: "ReLU"
  bottom: "inc2/inception_4d/double3x3_reduce/bn"
  top: "inc2/inception_4d/double3x3_reduce/bn"
}
layer {
  name: "inc2/inception_4d/double3x3a"
  type: "Convolution"
  bottom: "inc2/inception_4d/double3x3_reduce/bn"
  top: "inc2/inception_4d/double3x3a"
  param {
    lr_mult: 1.0
    decay_mult: 1.0
  }
  convolution_param {
    num_output: 192
    bias_term: false
    pad: 1
    kernel_size: 3
    weight_filler {
      type: "xavier"
    }
  }
}
layer {
  name: "inc2/inception_4d/double3x3a/bn"
  type: "BN"
  bottom: "inc2/inception_4d/double3x3a"
  top: "inc2/inception_4d/double3x3a/bn"
  param {
    lr_mult: 1.0
    decay_mult: 0.0
  }
  param {
    lr_mult: 1.0
    decay_mult: 0.0
  }
  bn_param {
    scale_filler {
      type: "constant"
      value: 1.0
    }
    shift_filler {
      type: "constant"
      value: 0.0
    }
  }
}
layer {
  name: "inc2/inception_4d/relu_double3x3a"
  type: "ReLU"
  bottom: "inc2/inception_4d/double3x3a/bn"
  top: "inc2/inception_4d/double3x3a/bn"
}
layer {
  name: "inc2/inception_4d/double3x3b"
  type: "Convolution"
  bottom: "inc2/inception_4d/double3x3a/bn"
  top: "inc2/inception_4d/double3x3b"
  param {
    lr_mult: 1.0
    decay_mult: 1.0
  }
  convolution_param {
    num_output: 192
    bias_term: false
    pad: 1
    kernel_size: 3
    weight_filler {
      type: "xavier"
    }
  }
}
layer {
  name: "inc2/inception_4d/double3x3b/bn"
  type: "BN"
  bottom: "inc2/inception_4d/double3x3b"
  top: "inc2/inception_4d/double3x3b/bn"
  param {
    lr_mult: 1.0
    decay_mult: 0.0
  }
  param {
    lr_mult: 1.0
    decay_mult: 0.0
  }
  bn_param {
    scale_filler {
      type: "constant"
      value: 1.0
    }
    shift_filler {
      type: "constant"
      value: 0.0
    }
  }
}
layer {
  name: "inc2/inception_4d/relu_double3x3b"
  type: "ReLU"
  bottom: "inc2/inception_4d/double3x3b/bn"
  top: "inc2/inception_4d/double3x3b/bn"
}
layer {
  name: "inc2/inception_4d/pool"
  type: "Pooling"
  bottom: "inc2/inception_4c/output"
  top: "inc2/inception_4d/pool"
  pooling_param {
    pool: AVE
    kernel_size: 3
    stride: 1
    pad: 1
  }
}
layer {
  name: "inc2/inception_4d/pool_proj"
  type: "Convolution"
  bottom: "inc2/inception_4d/pool"
  top: "inc2/inception_4d/pool_proj"
  param {
    lr_mult: 1.0
    decay_mult: 1.0
  }
  convolution_param {
    num_output: 128
    bias_term: false
    kernel_size: 1
    weight_filler {
      type: "xavier"
    }
  }
}
layer {
  name: "inc2/inception_4d/pool_proj/bn"
  type: "BN"
  bottom: "inc2/inception_4d/pool_proj"
  top: "inc2/inception_4d/pool_proj/bn"
  param {
    lr_mult: 1.0
    decay_mult: 0.0
  }
  param {
    lr_mult: 1.0
    decay_mult: 0.0
  }
  bn_param {
    scale_filler {
      type: "constant"
      value: 1.0
    }
    shift_filler {
      type: "constant"
      value: 0.0
    }
  }
}
layer {
  name: "inc2/inception_4d/relu_pool_proj"
  type: "ReLU"
  bottom: "inc2/inception_4d/pool_proj/bn"
  top: "inc2/inception_4d/pool_proj/bn"
}
layer {
  name: "inc2/inception_4d/output"
  type: "Concat"
  bottom: "inc2/inception_4d/1x1/bn"
  bottom: "inc2/inception_4d/3x3/bn"
  bottom: "inc2/inception_4d/double3x3b/bn"
  bottom: "inc2/inception_4d/pool_proj/bn"
  top: "inc2/inception_4d/output"
}
layer {
  name: "inc2/inception_4e/3x3_reduce"
  type: "Convolution"
  bottom: "inc2/inception_4d/output"
  top: "inc2/inception_4e/3x3_reduce"
  param {
    lr_mult: 1.0
    decay_mult: 1.0
  }
  convolution_param {
    num_output: 128
    bias_term: false
    kernel_size: 1
    weight_filler {
      type: "xavier"
    }
  }
}
layer {
  name: "inc2/inception_4e/3x3_reduce/bn"
  type: "BN"
  bottom: "inc2/inception_4e/3x3_reduce"
  top: "inc2/inception_4e/3x3_reduce/bn"
  param {
    lr_mult: 1.0
    decay_mult: 0.0
  }
  param {
    lr_mult: 1.0
    decay_mult: 0.0
  }
  bn_param {
    scale_filler {
      type: "constant"
      value: 1.0
    }
    shift_filler {
      type: "constant"
      value: 0.0
    }
  }
}
layer {
  name: "inc2/inception_4e/relu_3x3_reduce"
  type: "ReLU"
  bottom: "inc2/inception_4e/3x3_reduce/bn"
  top: "inc2/inception_4e/3x3_reduce/bn"
}
layer {
  name: "inc2/inception_4e/3x3"
  type: "Convolution"
  bottom: "inc2/inception_4e/3x3_reduce/bn"
  top: "inc2/inception_4e/3x3"
  param {
    lr_mult: 1.0
    decay_mult: 1.0
  }
  convolution_param {
    num_output: 192
    bias_term: false
    pad: 1
    kernel_size: 3
    stride: 2
    weight_filler {
      type: "xavier"
    }
  }
}
layer {
  name: "inc2/inception_4e/3x3/bn"
  type: "BN"
  bottom: "inc2/inception_4e/3x3"
  top: "inc2/inception_4e/3x3/bn"
  param {
    lr_mult: 1.0
    decay_mult: 0.0
  }
  param {
    lr_mult: 1.0
    decay_mult: 0.0
  }
  bn_param {
    scale_filler {
      type: "constant"
      value: 1.0
    }
    shift_filler {
      type: "constant"
      value: 0.0
    }
  }
}
layer {
  name: "inc2/inception_4e/relu_3x3"
  type: "ReLU"
  bottom: "inc2/inception_4e/3x3/bn"
  top: "inc2/inception_4e/3x3/bn"
}
layer {
  name: "inc2/inception_4e/double3x3_reduce"
  type: "Convolution"
  bottom: "inc2/inception_4d/output"
  top: "inc2/inception_4e/double3x3_reduce"
  param {
    lr_mult: 1.0
    decay_mult: 1.0
  }
  convolution_param {
    num_output: 192
    bias_term: false
    kernel_size: 1
    weight_filler {
      type: "xavier"
    }
  }
}
layer {
  name: "inc2/inception_4e/double3x3_reduce/bn"
  type: "BN"
  bottom: "inc2/inception_4e/double3x3_reduce"
  top: "inc2/inception_4e/double3x3_reduce/bn"
  param {
    lr_mult: 1.0
    decay_mult: 0.0
  }
  param {
    lr_mult: 1.0
    decay_mult: 0.0
  }
  bn_param {
    scale_filler {
      type: "constant"
      value: 1.0
    }
    shift_filler {
      type: "constant"
      value: 0.0
    }
  }
}
layer {
  name: "inc2/inception_4e/relu_double3x3_reduce"
  type: "ReLU"
  bottom: "inc2/inception_4e/double3x3_reduce/bn"
  top: "inc2/inception_4e/double3x3_reduce/bn"
}
layer {
  name: "inc2/inception_4e/double3x3a"
  type: "Convolution"
  bottom: "inc2/inception_4e/double3x3_reduce/bn"
  top: "inc2/inception_4e/double3x3a"
  param {
    lr_mult: 1.0
    decay_mult: 1.0
  }
  convolution_param {
    num_output: 256
    bias_term: false
    pad: 1
    kernel_size: 3
    weight_filler {
      type: "xavier"
    }
  }
}
layer {
  name: "inc2/inception_4e/double3x3a/bn"
  type: "BN"
  bottom: "inc2/inception_4e/double3x3a"
  top: "inc2/inception_4e/double3x3a/bn"
  param {
    lr_mult: 1.0
    decay_mult: 0.0
  }
  param {
    lr_mult: 1.0
    decay_mult: 0.0
  }
  bn_param {
    scale_filler {
      type: "constant"
      value: 1.0
    }
    shift_filler {
      type: "constant"
      value: 0.0
    }
  }
}
layer {
  name: "inc2/inception_4e/relu_double3x3a"
  type: "ReLU"
  bottom: "inc2/inception_4e/double3x3a/bn"
  top: "inc2/inception_4e/double3x3a/bn"
}
layer {
  name: "inc2/inception_4e/double3x3b"
  type: "Convolution"
  bottom: "inc2/inception_4e/double3x3a/bn"
  top: "inc2/inception_4e/double3x3b"
  param {
    lr_mult: 1.0
    decay_mult: 1.0
  }
  convolution_param {
    num_output: 256
    bias_term: false
    pad: 1
    kernel_size: 3
    stride: 2
    weight_filler {
      type: "xavier"
    }
  }
}
layer {
  name: "inc2/inception_4e/double3x3b/bn"
  type: "BN"
  bottom: "inc2/inception_4e/double3x3b"
  top: "inc2/inception_4e/double3x3b/bn"
  param {
    lr_mult: 1.0
    decay_mult: 0.0
  }
  param {
    lr_mult: 1.0
    decay_mult: 0.0
  }
  bn_param {
    scale_filler {
      type: "constant"
      value: 1.0
    }
    shift_filler {
      type: "constant"
      value: 0.0
    }
  }
}
layer {
  name: "inc2/inception_4e/relu_double3x3b"
  type: "ReLU"
  bottom: "inc2/inception_4e/double3x3b/bn"
  top: "inc2/inception_4e/double3x3b/bn"
}
layer {
  name: "inc2/inception_4e/pool/3x3_s2"
  type: "Pooling"
  bottom: "inc2/inception_4d/output"
  top: "inc2/inception_4e/pool/3x3_s2"
  pooling_param {
    pool: MAX
    kernel_size: 3
    stride: 2
  }
}
layer {
  name: "inc2/inception_4e/output"
  type: "Concat"
  bottom: "inc2/inception_4e/3x3/bn"
  bottom: "inc2/inception_4e/double3x3b/bn"
  bottom: "inc2/inception_4e/pool/3x3_s2"
  top: "inc2/inception_4e/output"
}
layer {
  name: "inc2/inception_5a/1x1"
  type: "Convolution"
  bottom: "inc2/inception_4e/output"
  top: "inc2/inception_5a/1x1"
  param {
    lr_mult: 1.0
    decay_mult: 1.0
  }
  convolution_param {
    num_output: 352
    bias_term: false
    kernel_size: 1
    weight_filler {
      type: "xavier"
    }
  }
}
layer {
  name: "inc2/inception_5a/1x1/bn"
  type: "BN"
  bottom: "inc2/inception_5a/1x1"
  top: "inc2/inception_5a/1x1/bn"
  param {
    lr_mult: 1.0
    decay_mult: 0.0
  }
  param {
    lr_mult: 1.0
    decay_mult: 0.0
  }
  bn_param {
    scale_filler {
      type: "constant"
      value: 1.0
    }
    shift_filler {
      type: "constant"
      value: 0.0
    }
  }
}
layer {
  name: "inc2/inception_5a/relu_1x1"
  type: "ReLU"
  bottom: "inc2/inception_5a/1x1/bn"
  top: "inc2/inception_5a/1x1/bn"
}
layer {
  name: "inc2/inception_5a/3x3_reduce"
  type: "Convolution"
  bottom: "inc2/inception_4e/output"
  top: "inc2/inception_5a/3x3_reduce"
  param {
    lr_mult: 1.0
    decay_mult: 1.0
  }
  convolution_param {
    num_output: 192
    bias_term: false
    kernel_size: 1
    weight_filler {
      type: "xavier"
    }
  }
}
layer {
  name: "inc2/inception_5a/3x3_reduce/bn"
  type: "BN"
  bottom: "inc2/inception_5a/3x3_reduce"
  top: "inc2/inception_5a/3x3_reduce/bn"
  param {
    lr_mult: 1.0
    decay_mult: 0.0
  }
  param {
    lr_mult: 1.0
    decay_mult: 0.0
  }
  bn_param {
    scale_filler {
      type: "constant"
      value: 1.0
    }
    shift_filler {
      type: "constant"
      value: 0.0
    }
  }
}
layer {
  name: "inc2/inception_5a/relu_3x3_reduce"
  type: "ReLU"
  bottom: "inc2/inception_5a/3x3_reduce/bn"
  top: "inc2/inception_5a/3x3_reduce/bn"
}
layer {
  name: "inc2/inception_5a/3x3"
  type: "Convolution"
  bottom: "inc2/inception_5a/3x3_reduce/bn"
  top: "inc2/inception_5a/3x3"
  param {
    lr_mult: 1.0
    decay_mult: 1.0
  }
  convolution_param {
    num_output: 320
    bias_term: false
    pad: 1
    kernel_size: 3
    weight_filler {
      type: "xavier"
    }
  }
}
layer {
  name: "inc2/inception_5a/3x3/bn"
  type: "BN"
  bottom: "inc2/inception_5a/3x3"
  top: "inc2/inception_5a/3x3/bn"
  param {
    lr_mult: 1.0
    decay_mult: 0.0
  }
  param {
    lr_mult: 1.0
    decay_mult: 0.0
  }
  bn_param {
    scale_filler {
      type: "constant"
      value: 1.0
    }
    shift_filler {
      type: "constant"
      value: 0.0
    }
  }
}
layer {
  name: "inc2/inception_5a/relu_3x3"
  type: "ReLU"
  bottom: "inc2/inception_5a/3x3/bn"
  top: "inc2/inception_5a/3x3/bn"
}
layer {
  name: "inc2/inception_5a/double3x3_reduce"
  type: "Convolution"
  bottom: "inc2/inception_4e/output"
  top: "inc2/inception_5a/double3x3_reduce"
  param {
    lr_mult: 1.0
    decay_mult: 1.0
  }
  convolution_param {
    num_output: 160
    bias_term: false
    kernel_size: 1
    weight_filler {
      type: "xavier"
    }
  }
}
layer {
  name: "inc2/inception_5a/double3x3_reduce/bn"
  type: "BN"
  bottom: "inc2/inception_5a/double3x3_reduce"
  top: "inc2/inception_5a/double3x3_reduce/bn"
  param {
    lr_mult: 1.0
    decay_mult: 0.0
  }
  param {
    lr_mult: 1.0
    decay_mult: 0.0
  }
  bn_param {
    scale_filler {
      type: "constant"
      value: 1.0
    }
    shift_filler {
      type: "constant"
      value: 0.0
    }
  }
}
layer {
  name: "inc2/inception_5a/relu_double3x3_reduce"
  type: "ReLU"
  bottom: "inc2/inception_5a/double3x3_reduce/bn"
  top: "inc2/inception_5a/double3x3_reduce/bn"
}
layer {
  name: "inc2/inception_5a/double3x3a"
  type: "Convolution"
  bottom: "inc2/inception_5a/double3x3_reduce/bn"
  top: "inc2/inception_5a/double3x3a"
  param {
    lr_mult: 1.0
    decay_mult: 1.0
  }
  convolution_param {
    num_output: 224
    bias_term: false
    pad: 1
    kernel_size: 3
    weight_filler {
      type: "xavier"
    }
  }
}
layer {
  name: "inc2/inception_5a/double3x3a/bn"
  type: "BN"
  bottom: "inc2/inception_5a/double3x3a"
  top: "inc2/inception_5a/double3x3a/bn"
  param {
    lr_mult: 1.0
    decay_mult: 0.0
  }
  param {
    lr_mult: 1.0
    decay_mult: 0.0
  }
  bn_param {
    scale_filler {
      type: "constant"
      value: 1.0
    }
    shift_filler {
      type: "constant"
      value: 0.0
    }
  }
}
layer {
  name: "inc2/inception_5a/relu_double3x3a"
  type: "ReLU"
  bottom: "inc2/inception_5a/double3x3a/bn"
  top: "inc2/inception_5a/double3x3a/bn"
}
layer {
  name: "inc2/inception_5a/double3x3b"
  type: "Convolution"
  bottom: "inc2/inception_5a/double3x3a/bn"
  top: "inc2/inception_5a/double3x3b"
  param {
    lr_mult: 1.0
    decay_mult: 1.0
  }
  convolution_param {
    num_output: 224
    bias_term: false
    pad: 1
    kernel_size: 3
    weight_filler {
      type: "xavier"
    }
  }
}
layer {
  name: "inc2/inception_5a/double3x3b/bn"
  type: "BN"
  bottom: "inc2/inception_5a/double3x3b"
  top: "inc2/inception_5a/double3x3b/bn"
  param {
    lr_mult: 1.0
    decay_mult: 0.0
  }
  param {
    lr_mult: 1.0
    decay_mult: 0.0
  }
  bn_param {
    scale_filler {
      type: "constant"
      value: 1.0
    }
    shift_filler {
      type: "constant"
      value: 0.0
    }
  }
}
layer {
  name: "inc2/inception_5a/relu_double3x3b"
  type: "ReLU"
  bottom: "inc2/inception_5a/double3x3b/bn"
  top: "inc2/inception_5a/double3x3b/bn"
}
layer {
  name: "inc2/inception_5a/pool"
  type: "Pooling"
  bottom: "inc2/inception_4e/output"
  top: "inc2/inception_5a/pool"
  pooling_param {
    pool: AVE
    kernel_size: 3
    stride: 1
    pad: 1
  }
}
layer {
  name: "inc2/inception_5a/pool_proj"
  type: "Convolution"
  bottom: "inc2/inception_5a/pool"
  top: "inc2/inception_5a/pool_proj"
  param {
    lr_mult: 1.0
    decay_mult: 1.0
  }
  convolution_param {
    num_output: 128
    bias_term: false
    kernel_size: 1
    weight_filler {
      type: "xavier"
    }
  }
}
layer {
  name: "inc2/inception_5a/pool_proj/bn"
  type: "BN"
  bottom: "inc2/inception_5a/pool_proj"
  top: "inc2/inception_5a/pool_proj/bn"
  param {
    lr_mult: 1.0
    decay_mult: 0.0
  }
  param {
    lr_mult: 1.0
    decay_mult: 0.0
  }
  bn_param {
    scale_filler {
      type: "constant"
      value: 1.0
    }
    shift_filler {
      type: "constant"
      value: 0.0
    }
  }
}
layer {
  name: "inc2/inception_5a/relu_pool_proj"
  type: "ReLU"
  bottom: "inc2/inception_5a/pool_proj/bn"
  top: "inc2/inception_5a/pool_proj/bn"
}
layer {
  name: "inc2/inception_5a/output"
  type: "Concat"
  bottom: "inc2/inception_5a/1x1/bn"
  bottom: "inc2/inception_5a/3x3/bn"
  bottom: "inc2/inception_5a/double3x3b/bn"
  bottom: "inc2/inception_5a/pool_proj/bn"
  top: "inc2/inception_5a/output"
}
layer {
  name: "inc2/inception_5b/1x1"
  type: "Convolution"
  bottom: "inc2/inception_5a/output"
  top: "inc2/inception_5b/1x1"
  param {
    lr_mult: 1.0
    decay_mult: 1.0
  }
  convolution_param {
    num_output: 352
    bias_term: false
    kernel_size: 1
    weight_filler {
      type: "xavier"
    }
  }
}
layer {
  name: "inc2/inception_5b/1x1/bn"
  type: "BN"
  bottom: "inc2/inception_5b/1x1"
  top: "inc2/inception_5b/1x1/bn"
  param {
    lr_mult: 1.0
    decay_mult: 0.0
  }
  param {
    lr_mult: 1.0
    decay_mult: 0.0
  }
  bn_param {
    scale_filler {
      type: "constant"
      value: 1.0
    }
    shift_filler {
      type: "constant"
      value: 0.0
    }
  }
}
layer {
  name: "inc2/inception_5b/relu_1x1"
  type: "ReLU"
  bottom: "inc2/inception_5b/1x1/bn"
  top: "inc2/inception_5b/1x1/bn"
}
layer {
  name: "inc2/inception_5b/3x3_reduce"
  type: "Convolution"
  bottom: "inc2/inception_5a/output"
  top: "inc2/inception_5b/3x3_reduce"
  param {
    lr_mult: 1.0
    decay_mult: 1.0
  }
  convolution_param {
    num_output: 192
    bias_term: false
    kernel_size: 1
    weight_filler {
      type: "xavier"
    }
  }
}
layer {
  name: "inc2/inception_5b/3x3_reduce/bn"
  type: "BN"
  bottom: "inc2/inception_5b/3x3_reduce"
  top: "inc2/inception_5b/3x3_reduce/bn"
  param {
    lr_mult: 1.0
    decay_mult: 0.0
  }
  param {
    lr_mult: 1.0
    decay_mult: 0.0
  }
  bn_param {
    scale_filler {
      type: "constant"
      value: 1.0
    }
    shift_filler {
      type: "constant"
      value: 0.0
    }
  }
}
layer {
  name: "inc2/inception_5b/relu_3x3_reduce"
  type: "ReLU"
  bottom: "inc2/inception_5b/3x3_reduce/bn"
  top: "inc2/inception_5b/3x3_reduce/bn"
}
layer {
  name: "inc2/inception_5b/3x3"
  type: "Convolution"
  bottom: "inc2/inception_5b/3x3_reduce/bn"
  top: "inc2/inception_5b/3x3"
  param {
    lr_mult: 1.0
    decay_mult: 1.0
  }
  convolution_param {
    num_output: 320
    bias_term: false
    pad: 1
    kernel_size: 3
    weight_filler {
      type: "xavier"
    }
  }
}
layer {
  name: "inc2/inception_5b/3x3/bn"
  type: "BN"
  bottom: "inc2/inception_5b/3x3"
  top: "inc2/inception_5b/3x3/bn"
  param {
    lr_mult: 1.0
    decay_mult: 0.0
  }
  param {
    lr_mult: 1.0
    decay_mult: 0.0
  }
  bn_param {
    scale_filler {
      type: "constant"
      value: 1.0
    }
    shift_filler {
      type: "constant"
      value: 0.0
    }
  }
}
layer {
  name: "inc2/inception_5b/relu_3x3"
  type: "ReLU"
  bottom: "inc2/inception_5b/3x3/bn"
  top: "inc2/inception_5b/3x3/bn"
}
layer {
  name: "inc2/inception_5b/double3x3_reduce"
  type: "Convolution"
  bottom: "inc2/inception_5a/output"
  top: "inc2/inception_5b/double3x3_reduce"
  param {
    lr_mult: 1.0
    decay_mult: 1.0
  }
  convolution_param {
    num_output: 192
    bias_term: false
    kernel_size: 1
    weight_filler {
      type: "xavier"
    }
  }
}
layer {
  name: "inc2/inception_5b/double3x3_reduce/bn"
  type: "BN"
  bottom: "inc2/inception_5b/double3x3_reduce"
  top: "inc2/inception_5b/double3x3_reduce/bn"
  param {
    lr_mult: 1.0
    decay_mult: 0.0
  }
  param {
    lr_mult: 1.0
    decay_mult: 0.0
  }
  bn_param {
    scale_filler {
      type: "constant"
      value: 1.0
    }
    shift_filler {
      type: "constant"
      value: 0.0
    }
  }
}
layer {
  name: "inc2/inception_5b/relu_double3x3_reduce"
  type: "ReLU"
  bottom: "inc2/inception_5b/double3x3_reduce/bn"
  top: "inc2/inception_5b/double3x3_reduce/bn"
}
layer {
  name: "inc2/inception_5b/double3x3a"
  type: "Convolution"
  bottom: "inc2/inception_5b/double3x3_reduce/bn"
  top: "inc2/inception_5b/double3x3a"
  param {
    lr_mult: 1.0
    decay_mult: 1.0
  }
  convolution_param {
    num_output: 224
    bias_term: false
    pad: 1
    kernel_size: 3
    weight_filler {
      type: "xavier"
    }
  }
}
layer {
  name: "inc2/inception_5b/double3x3a/bn"
  type: "BN"
  bottom: "inc2/inception_5b/double3x3a"
  top: "inc2/inception_5b/double3x3a/bn"
  param {
    lr_mult: 1.0
    decay_mult: 0.0
  }
  param {
    lr_mult: 1.0
    decay_mult: 0.0
  }
  bn_param {
    scale_filler {
      type: "constant"
      value: 1.0
    }
    shift_filler {
      type: "constant"
      value: 0.0
    }
  }
}
layer {
  name: "inc2/inception_5b/relu_double3x3a"
  type: "ReLU"
  bottom: "inc2/inception_5b/double3x3a/bn"
  top: "inc2/inception_5b/double3x3a/bn"
}
layer {
  name: "inc2/inception_5b/double3x3b"
  type: "Convolution"
  bottom: "inc2/inception_5b/double3x3a/bn"
  top: "inc2/inception_5b/double3x3b"
  param {
    lr_mult: 1.0
    decay_mult: 1.0
  }
  convolution_param {
    num_output: 224
    bias_term: false
    pad: 1
    kernel_size: 3
    weight_filler {
      type: "xavier"
    }
  }
}
layer {
  name: "inc2/inception_5b/double3x3b/bn"
  type: "BN"
  bottom: "inc2/inception_5b/double3x3b"
  top: "inc2/inception_5b/double3x3b/bn"
  param {
    lr_mult: 1.0
    decay_mult: 0.0
  }
  param {
    lr_mult: 1.0
    decay_mult: 0.0
  }
  bn_param {
    scale_filler {
      type: "constant"
      value: 1.0
    }
    shift_filler {
      type: "constant"
      value: 0.0
    }
  }
}
layer {
  name: "inc2/inception_5b/relu_double3x3b"
  type: "ReLU"
  bottom: "inc2/inception_5b/double3x3b/bn"
  top: "inc2/inception_5b/double3x3b/bn"
}
layer {
  name: "inc2/inception_5b/pool"
  type: "Pooling"
  bottom: "inc2/inception_5a/output"
  top: "inc2/inception_5b/pool"
  pooling_param {
    pool: MAX
    kernel_size: 3
    stride: 1
    pad: 1
  }
}
layer {
  name: "inc2/inception_5b/pool_proj"
  type: "Convolution"
  bottom: "inc2/inception_5b/pool"
  top: "inc2/inception_5b/pool_proj"
  param {
    lr_mult: 1.0
    decay_mult: 1.0
  }
  convolution_param {
    num_output: 128
    bias_term: false
    kernel_size: 1
    weight_filler {
      type: "xavier"
    }
  }
}
layer {
  name: "inc2/inception_5b/pool_proj/bn"
  type: "BN"
  bottom: "inc2/inception_5b/pool_proj"
  top: "inc2/inception_5b/pool_proj/bn"
  param {
    lr_mult: 1.0
    decay_mult: 0.0
  }
  param {
    lr_mult: 1.0
    decay_mult: 0.0
  }
  bn_param {
    scale_filler {
      type: "constant"
      value: 1.0
    }
    shift_filler {
      type: "constant"
      value: 0.0
    }
  }
}
layer {
  name: "inc2/inception_5b/relu_pool_proj"
  type: "ReLU"
  bottom: "inc2/inception_5b/pool_proj/bn"
  top: "inc2/inception_5b/pool_proj/bn"
}
layer {
  name: "inc2/inception_5b/output"
  type: "Concat"
  bottom: "inc2/inception_5b/1x1/bn"
  bottom: "inc2/inception_5b/3x3/bn"
  bottom: "inc2/inception_5b/double3x3b/bn"
  bottom: "inc2/inception_5b/pool_proj/bn"
  top: "inc2/inception_5b/output"
}
layer {
  name: "inc2/pool5/7x7_s1"
  type: "Pooling"
  bottom: "inc2/inception_5b/output"
  top: "inc2/pool5/7x7_s1"
  pooling_param {
    pool: AVE
    kernel_size: 7
    stride: 1
  }
}
layer {
  name: "final/concat"
  type: "Concat"
  bottom: "inc1/pool5/7x7_s1"
  bottom: "inc2/pool5/7x7_s1"
  top: "final/concat/output"
}
layer {
  name: "final/dropout"
  type: "Dropout"
  bottom: "final/concat/output"
  top: "final/concat/output"
  dropout_param {
    dropout_ratio: 0.7
  }
}
layer {
  name: "final/res"
  type: "InnerProduct"
  bottom: "final/concat/output"
  top: "final/res"
  inner_product_param {
    num_output: 200
    weight_filler {
      type: "gaussian"
      std: 0.001
    }
    bias_filler {
      type: "constant"
    }
  }
}
layer {
  name: "accuracy"
  type: "Accuracy"
  bottom: "final/res"
  bottom: "label"
  top: "accuracy/top1"
}
layer {
  name: "accuracy/top5"
  type: "Accuracy"
  bottom: "final/res"
  bottom: "label"
  top: "accuracy/top5"
  accuracy_param {
    top_k: 5
  }
}
layer {
  name: "loss"
  type: "SoftmaxWithLoss"
  bottom: "final/res"
  bottom: "label"
  top: "loss"
}
